orig.pth (torch_old, 13595 bytes, 8 tensors)

conv1.weight f4 [8, 1, 3, 3]
0	0x4023dc77	2.560331
1	0xbf2f19f3	-0.6839897
2	0xbf734838	-0.9503207
3	0x3f8c5a1c	1.0964999
4	0xbde95fa4	-0.11395195
5	0xbf97852c	-1.1837516
6	0x3f0a0d54	0.5392659
7	0x3ff8a6bb	1.9425882
8	0x3fca6ac5	1.5813833
9	0xbf9f0d32	-1.2425902
10	0x3ec15811	0.37762502
11	0xbf30e228	-0.6909509
12	0xbef177c1	-0.47161677
13	0x3eb78bee	0.35848945
14	0x3ed1bc39	0.40963915
15	0x3ffb0d4d	1.9613434
16	0x3eea0747	0.45708677
17	0x3f5c3cb2	0.86030114
18	0xbf9fd821	-1.2487832
19	0x3ff31c93	1.8993095
20	0x3f96f24b	1.1792692
21	0xbf7db2b8	-0.9910083
22	0x3ff46c00	1.9095459
23	0xbe90610d	-0.28199044
24	0x3f9555a0	1.1666756
25	0x3f9e69a8	1.2375994
26	0xbfa517fd	-1.2897946
27	0xbe029983	-0.12753873
28	0xbf6c8f77	-0.9240641
29	0x3fbfa351	1.4971715
30	0xbfd832f3	-1.6890548
31	0xbea976c2	-0.33098418
32	0x3ffee7d2	1.9914496
33	0xbeecb36a	-0.46230632
34	0x3f3c85bd	0.7364157
35	0x3efc0fbd	0.49230757
36	0x3cd47bd3	0.02593795
37	0x3f147bfe	0.580017
38	0x3f240e5e	0.6408442
39	0x3e392115	0.18079026
40	0x3fdde001	1.7333986
41	0x3ff81968	1.9382753
42	0xc0354a84	-2.832673
43	0xc00433da	-2.0656648
44	0xc0468d80	-3.1023865
45	0x3ef26c95	0.47348467
46	0x4002da1c	2.0445623
47	0x40227a56	2.5387168
48	0xc0425018	-3.0361385
49	0xbf5e916d	-0.8694065
50	0xc033721d	-2.80384
51	0xbeee08d0	-0.46491098
52	0xbf42b707	-0.7606053
53	0xbe192134	-0.14954072
54	0x3fa03ce5	1.2518584
55	0x3f348d10	0.70527744
56	0xbc7d329c	-0.015453961
57	0x3fa96642	1.3234332
58	0x3f3839d6	0.7196325
59	0xbf6111e5	-0.8791793
60	0x3e9d2460	0.30691814
61	0xbf926c35	-1.1439272
62	0xbfa502e1	-1.2891504
63	0x3ff7f022	1.9370158
64	0xbe7d282b	-0.24722354
65	0xc00b15f3	-2.1732147
66	0x3f51b442	0.81915677
67	0x404bcdeb	3.1844432
68	0x40070e43	2.1102455
69	0xc01801e5	-2.3751156
70	0xbfdb5410	-1.7135029
71	0x400719a4	2.11094

conv1.bias f4 [8]
0	0xc022dd66	-2.544763
1	0xbd05da31	-0.032678787
2	0xbfe970b1	-1.8237516
3	0xbf3326d9	-0.6998115
4	0xbd262bb5	-0.040569026
5	0x3d171506	0.036885284
6	0xbe076050	-0.13220334
7	0xc04250d3	-3.036183

conv2.weight f4 [16, 8, 2, 2]
0	0x3eda14de	0.42594045
1	0x3d8e6a28	0.069538414
2	0xbe6c335b	-0.23066466
3	0xbdb7bd6d	-0.08971677
4	0x3e5b7a63	0.21433406
5	0xbf04395f	-0.5165004
6	0x3f32071a	0.69542086
7	0xbfcbbf31	-1.5917722
8	0x3e6b4ee5	0.22979315
9	0xbf733315	-0.9499982
10	0x3f9e3d33	1.2362427
11	0xbfb26b6e	-1.3939035
12	0x3f83b814	1.0290551
13	0xbf53c546	-0.8272289
14	0x3f6ab6ea	0.91685355
15	0xbf0982a4	-0.53714967
16	0x3b4250d3	0.0029650226
17	0xbfd8f6a8	-1.6950274
18	0xbe1b6353	-0.15174608
19	0xbfbf4770	-1.4943676
20	0x3e164499	0.14674605
21	0xbf8b382c	-1.0876517
22	0xbe59cdeb	-0.21269958
23	0xbfc5111a	-1.5395844
24	0xbe286105	-0.1644326
25	0x3e925a2e	0.28584427
26	0x3e280772	0.1640909
27	0x3ef4683b	0.47735772
28	0x3ececd16	0.40390843
29	0xbfc2fa5f	-1.5232657
30	0xbec4e635	-0.38456884
31	0xbfb2078f	-1.3908557
32	0xbef88260	-0.48536968
33	0x3eb03577	0.3441579
34	0x3cdd38e6	0.02700467
35	0xbf0ccd97	-0.55001205
36	0x3f9cbe8e	1.2245653
37	0xbe91e5a9	-0.2849553
38	0xbd29df5a	-0.04147277
39	0x3e4cb921	0.19992496
40	0x3f86da86	1.0535438
41	0x3f0621a4	0.5239508
42	0xbe484459	-0.19557323
43	0xbec8a9ef	-0.3919215
44	0x3f823015	1.0170923
45	0xbeaabd03	-0.3334733
46	0xbf4ce267	-0.8003296
47	0xbd1d867f	-0.038458344
48	0xbea0d0cd	-0.31409302
49	0xbddb3a1e	-0.10704444
50	0x3e6d9d2a	0.23204485
51	0x3d91af93	0.07113566
52	0xbecf5d75	-0.4050099
53	0x3cbd8695	0.023135463
54	0x3e053477	0.13008295
55	0x3e23928b	0.1597387
56	0x3ef15c12	0.47140557
57	0x3e93b562	0.28849322
58	0x3de9ec2a	0.11421998
59	0xbedd8175	-0.4326283
60	0xbf6d55fa	-0.92709315
61	0x3e7d0d75	0.24712165
62	0xbebd03ea	-0.3691705
63	0xbe60749d	-0.21919484
64	0x3f9b754d	1.2145172
65	0xbf916fa7	-1.1362199
66	0x3eb54e79	0.35411432
67	0xc0029891	-2.040562
68	0x3ee88d20	0.4542017
69	0xbf44c42c	-0.76861835
70	0xbdf4be50	-0.11950362
71	0xbe43d2c9	-0.19123377
72	0x3ea927fc	0.33038318
73	0xbfd9af2b	-1.7006582
74	0x3e95ef7f	0.29284284
75	0x3dbcaee5	0.09213046
76	0xbe6c45e4	-0.23073536
77	0xbe034599	-0.12819518
78	0xbedcd2a8	-0.43129468
79	0x3f5ecb0e	0.87028587
80	0xbf9ee8b0	-1.241476
81	0xbf045752	-0.5169574
82	0xbe1f54cc	-0.15559691
83	0xbf8eae5a	-1.1146958
84	0xbfc43f65	-1.5331846
85	0xbef5910e	-0.4796223
86	0xbe4904b7	-0.19630705
87	0xbf7d0082	-0.988289
88	0x3f1df785	0.6170581
89	0xbfef4183	-1.8691868
90	0x3fb7eb29	1.436864
91	0xbffacdf5	-1.9594103
92	0xbe003eda	-0.12523976
93	0xbf2bb6d9	-0.6707588
94	0xbec73a01	-0.3891144
95	0xbf40c272	-0.752967
96	0x3ed65adb	0.41866192
97	0xbd19e2cd	-0.03756981
98	0xbe1fcb20	-0.1560483
99	0xbfbb19f0	-1.461729
100	0x3e02c22d	0.12769385
101	0x3fd885da	1.6915848
102	0xbf9d06c3	-1.2267689
103	0xc028757b	-2.6321704
104	0xbc9c92f8	-0.019113049
105	0x3f34f429	0.7068506
106	0xbf93dee2	-1.1552393
107	0xbe9bc147	-0.30420896
108	0x3d91e038	0.071228445
109	0x3fc2f7a7	1.5231827
110	0xbf93fe16	-1.1561916
111	0xbfc311d9	-1.5239822
112	0xbd35882c	-0.044319317
113	0xbeef176c	-0.46697557
114	0x3f877a13	1.0584129
115	0x3d47b506	0.04875662
116	0x3de95e60	0.11394954
117	0xbda9bacd	-0.082875825
118	0x3faadeae	1.3349206
119	0xbcc94604	-0.024569519
120	0x3ecaa8b0	0.39581823
121	0xbe8cc43a	-0.2749346
122	0xbec6a79f	-0.3879976
123	0x3ef95aa9	0.4870198
124	0xbe206a61	-0.1566558
125	0x3b8ae7c8	0.0042390563
126	0x3e549cfa	0.20763007
127	0xbf2e0449	-0.6797529
128	0xc00d18d8	-2.2046413
129	0x3e1be51f	0.15224122
130	0xbfcee17a	-1.616256
131	0x3e87e6f6	0.26543397
132	0xbfca4ee1	-1.5805322
133	0x3fa96a1c	1.3235507
134	0xbfe0fe3a	-1.7577584
135	0x3c08717d	0.008327839
136	0xc00ff9e3	-2.2496269
137	0x3f857319	1.042575
138	0xbf952e5f	-1.1654776
139	0xbeb2571f	-0.34832093
140	0x3ca3b179	0.019982086
141	0x3f6bbc33	0.92084044
142	0xbf27bd98	-0.6552367
143	0xbd4ad508	-0.04951957
144	0xbf97e445	-1.1866537
145	0xbe67a88f	-0.22622894
146	0xbe07bdae	-0.13255951
147	0x3f952151	1.1650792
148	0xbdac1be7	-0.084037594
149	0xbf0d68e3	-0.5523817
150	0x3d195d26	0.03744235
151	0x3f45fdb9	0.77340275
152	0xbf11f46a	-0.5701357
153	0x3e652175	0.22376044
154	0xbf80034c	-1.0001006
155	0xbf10fa08	-0.5663152
156	0xbf9e71e1	-1.2378503
157	0xbeaa5ca6	-0.3327381
158	0xbf6bb8fc	-0.9207914
159	0x3f55c7f4	0.8350823
160	0xbf2e460f	-0.6807565
161	0xbf6d252e	-0.92634857
162	0xbee4c954	-0.4468485
163	0x3f64fe0c	0.89450145
164	0xbec93ce2	-0.39304262
165	0xbf9c20e2	-1.2197535
166	0x3f066332	0.5249511
167	0x3e4e0656	0.20119604
168	0xbfdef93d	-1.7419811
169	0xbfde7916	-1.7380702
170	0x3f4ed27b	0.8078992
171	0xbee49350	-0.4464364
172	0xbfa3e3c3	-1.2803882
173	0xbff17986	-1.8865211
174	0x3f87ad4a	1.0599759
175	0x3ef24c0f	0.47323653
176	0xbf901aac	-1.125814
177	0x3df0f42f	0.11765324
178	0x3ee131f1	0.43983415
179	0x3e978761	0.29595473
180	0xbf093616	-0.53598154
181	0x3ee0926a	0.43861705
182	0x3e9107e0	0.2832632
183	0x3e74ae2d	0.23894568
184	0xc0089032	-2.133801
185	0xbfd2cd9b	-1.6468996
186	0x3faef5dd	1.3668782
187	0xbea9c6b3	-0.33159408
188	0xbf456539	-0.7710758
189	0xbea47e5a	-0.3212765
190	0xbe78424f	-0.24244045
191	0x3fafcd7d	1.3734585
192	0x3f80745d	1.0035511
193	0xbeea0807	-0.4570925
194	0x3f8c138c	1.0943465
195	0x3f8f9e06	1.12201
196	0xbe27c189	-0.16382422
197	0x3ec7d082	0.39026266
198	0x3e8386d1	0.25688794
199	0xbe2c9298	-0.16852796
200	0x3f40c02d	0.75293237
201	0x3ef993da	0.48745614
202	0x3cd368b3	0.02580676
203	0x3d2c332b	0.042040985
204	0x3e4dbd67	0.20091783
205	0x3f46fcf2	0.77729714
206	0xbe8a7154	-0.27039587
207	0xbe82775c	-0.2548169
208	0xbf397daf	-0.724574
209	0xbd9c7667	-0.07639771
210	0x3e51b45b	0.20478956
211	0xbe1778da	-0.14792195
212	0xbf0dd4e6	-0.5540298
213	0xbe6ed109	-0.23321928
214	0x3cd9fff1	0.0266113
215	0x3e34cba3	0.17655806
216	0x3eff9585	0.49918762
217	0x3ec7e044	0.3903829
218	0xbe74e2ff	-0.23914717
219	0xbceb42cc	-0.028718375
220	0xbee6b327	-0.45058557
221	0xbe7f1b63	-0.24912791
222	0x3ecf28c5	0.40460792
223	0x40002a4f	2.0025823
224	0xc00785ff	-2.1175535
225	0x3eb5a60e	0.35478252
226	0xbf6453a5	-0.8919013
227	0xbfc4082d	-1.5314995
228	0xbfc48399	-1.535266
229	0x3ef7a827	0.48370478
230	0xbfa07841	-1.2536699
231	0xbe8d30a6	-0.27576178
232	0xbf66acea	-0.90107596
233	0x3f18d558	0.59700537
234	0xbfe66612	-1.7999899
235	0xbf370b87	-0.71501964
236	0x3f862ae9	1.0481845
237	0x3efa4e9d	0.48888102
238	0xbfcf6fb8	-1.6205969
239	0xbf10fa59	-0.56632
240	0xbf90ad42	-1.1302874
241	0x3fc84672	1.5646498
242	0xbfb80165	-1.4375426
243	0x3f9229e2	1.1419032
244	0xbf9fc70e	-1.2482622
245	0x3f51a707	0.8189549
246	0xbf88ca56	-1.0686748
247	0x3fca2373	1.5792068
248	0xbfca243f	-1.5792311
249	0x3e565c48	0.2093364
250	0xbfd07f82	-1.6288912
251	0xbe171278	-0.14753139
252	0xbfc0c7a5	-1.5060927
253	0x3dbb598c	0.09147939
254	0xbf5613f5	-0.836242
255	0xbf6ac04d	-0.9169968

conv2.bias f4 [16]
0	0xbdb4921c	-0.08816931
1	0xbda9b549	-0.082865305
2	0x3ec9e642	0.39433485
3	0x3eab33d8	0.3343799
4	0x3e84ddbf	0.2595043
5	0x3e09a629	0.13442291
6	0xc09c72a8	-4.888996
7	0x3f915227	1.1353196
8	0x407ed4cf	3.9817388
9	0x3f91c3d9	1.1387893
10	0xc039f1f1	-2.905392
11	0xbfcb1345	-1.5865256
12	0x3efecf15	0.49767366
13	0xc00afd9c	-2.171729
14	0xbf5f434e	-0.87212074
15	0xbe89b56e	-0.26896232

conv3.weight f4 [32, 16, 2, 2]
0	0xbf0fdb14	-0.5619366
1	0x3e2f8f37	0.17144476
2	0xbf92bf3a	-1.1464608
3	0xbf005b19	-0.50139004
4	0xbf155aec	-0.5834186
5	0x3d246a4f	0.040140446
6	0xbe171704	-0.14754874
7	0xbe5baefd	-0.21453471
8	0x3d15f01b	0.036605936
9	0xbcaceb43	-0.021108275
10	0xbe4d85fd	-0.20070644
11	0xbf2c0777	-0.6719889
12	0xbf14a90a	-0.58070433
13	0x3eefeb5f	0.4685926
14	0xbf6c1bc9	-0.92229897
15	0x3f31de56	0.6947988
16	0xbf2d68f8	-0.67738295
17	0xbcec6aa4	-0.028859444
18	0x3f2e2d8b	0.68038243
19	0xc00599f2	-2.087521
20	0xbf242d20	-0.64131355
21	0xbf1f89fc	-0.6231992
22	0x3e9aa4c2	0.30203825
23	0x3ea2063f	0.3164539
24	0xbf00b549	-0.5027662
25	0xbfa87834	-1.3161683
26	0x3f51edd6	0.82003534
27	0xbf1406f5	-0.57823116
28	0x3e804a6f	0.25056788
29	0x3e695bb0	0.22788882
30	0xbf2de0b2	-0.6792098
31	0xc005112a	-2.0791726
32	0x3e827bb5	0.25485006
33	0x3cb52cc2	0.022116069
34	0xbe9f754b	-0.31144175
35	0xbf05b566	-0.5222992
36	0xbf481563	-0.78157634
37	0x3f21b78e	0.6317071
38	0xbfbee841	-1.4914628
39	0xbe4638a7	-0.19357549
40	0xbeca812c	-0.39551675
41	0xbe023541	-0.12715627
42	0x3ce71d33	0.028212165
43	0xbf80224f	-1.001047
44	0xbef85e6b	-0.48509535
45	0xbfd9e20e	-1.7022111
46	0xbf0a033b	-0.5391118
47	0x3f801c11	1.0008565
48	0xbf299a15	-0.66250736
49	0xbeab76d7	-0.33489105
50	0x3ecf5b06	0.40499133
51	0xbf2854f9	-0.6575466
52	0xbe231ba7	-0.15928517
53	0xbe2d8eb5	-0.1694897
54	0xbe5d52b6	-0.21613583
55	0x3ecffece	0.40624088
56	0xbf66c9af	-0.90151495
57	0xbfb11211	-1.3833638
58	0x3ecaca42	0.39607435
59	0x3e1d013e	0.15332505
60	0xbde8d731	-0.113691695
61	0xbd9168a7	-0.07100039
62	0xbf5e950a	-0.86946166
63	0x3ee4238a	0.44558364
64	0xbe5132ee	-0.20429584
65	0x3e5cc216	0.21558413
66	0xbe6941d6	-0.2277902
67	0x3f401217	0.750276
68	0xbecfcfdb	-0.4058827
69	0x3c19d84e	0.00938995
70	0xbf3b9850	-0.73279285
71	0x3f03593b	0.5130803
72	0xbf933395	-1.1500117
73	0x3f768c59	0.96307904
74	0xbf095314	-0.5364239
75	0xbe3f2ec9	-0.18670191
76	0xbcc6bf3f	-0.024261115
77	0xbdb09c13	-0.08623519
78	0xbbe78c9b	-0.007066322
79	0x3da9cf77	0.08291524
80	0x3ebf9f3f	0.37426183
81	0x3f367ce0	0.71284294
82	0xbf8909fb	-1.0706171
83	0xbf528b13	-0.8224346
84	0xbf271ebf	-0.6528129
85	0xbf6e6a5a	-0.9313103
86	0xbed63e44	-0.4184438
87	0xbed26e87	-0.4109995
88	0xbee992f0	-0.45619917
89	0xbecc663d	-0.39921752
90	0xbf815ce3	-1.0106472
91	0xbfa29a67	-1.270337
92	0x3f6b68b0	0.91956615
93	0xbea82061	-0.32837203
94	0xbd3ca1dd	-0.046052802
95	0xbf1578dc	-0.5838754
96	0x3c8c8d9f	0.017157374
97	0xbd296111	-0.041352335
98	0xbe219402	-0.15779117
99	0x3e8502c7	0.2597868
100	0x3decd425	0.11563901
101	0xbf3d4076	-0.73926485
102	0x3efca22b	0.49342474
103	0x3ed268c7	0.41095564
104	0xbe25093c	-0.16116804
105	0xbee2fd84	-0.44334042
106	0xbf2c0433	-0.6719391
107	0x3d26497d	0.040597428
108	0xbe56883d	-0.20950408
109	0xbdb22523	-0.086984895
110	0xbf52fbbc	-0.82415366
111	0xbf89a7b0	-1.0754299
112	0x3e8a028a	0.26955062
113	0x3f017ab4	0.50577855
114	0xbf5620bd	-0.83643705
115	0xbf3fde6a	-0.7494875
116	0xbee9367f	-0.4554939
117	0xbfcf4ecf	-1.6195925
118	0x3e0f16d3	0.1397355
119	0xbeef19af	-0.46699283
120	0xbf1f40c5	-0.62208205
121	0xbfde2a0e	-1.7356584
122	0xbf0fabf4	-0.56121755
123	0xbf34fafe	-0.70695484
124	0x3daf4fb0	0.08560121
125	0xbed658a0	-0.4186449
126	0xbf324531	-0.6963683
127	0x3f900d5b	1.1254076
128	0xbf3ea94e	-0.7447709
129	0xbecf81ad	-0.40528622
130	0x3e540424	0.20704705
131	0x3ead4cf8	0.33847785
132	0x3e1ce563	0.15321879
133	0xbf12b1e7	-0.5730271
134	0x3f10721a	0.56424105
135	0xbe80a8e1	-0.25128844
136	0xbf973317	-1.1812466
137	0xbe201f58	-0.15636957
138	0x3ef6e452	0.4822107
139	0xbe19a7ba	-0.15005389
140	0x3daf45a3	0.08558204
141	0x3e660b80	0.22465324
142	0x3d856e21	0.06515146
143	0xbf0b0869	-0.5430971
144	0xbf894163	-1.072308
145	0xbfc4e202	-1.5381472
146	0x3f094bcf	0.536313
147	0xbef96905	-0.48712936
148	0x3e70e99f	0.2352662
149	0xbcf1aeb3	-0.029502248
150	0x3e44b736	0.19210514
151	0x3d87ddc5	0.06634096
152	0x3e3f7023	0.1869512
153	0x3fc281e2	1.5195887
154	0xbfa253bc	-1.2681804
155	0xbfa2e5cc	-1.2726378
156	0xbfd1c1eb	-1.6387304
157	0xbfce8587	-1.6134499
158	0x3e8db1ee	0.27674812
159	0x3ecd6c3d	0.40121642
160	0xbef5bc3f	-0.47995183
161	0x3f21b336	0.6316408
162	0xbf986c91	-1.1908132
163	0xbf9e7125	-1.2378279
164	0xbfa678ac	-1.3005576
165	0xbf30387a	-0.68836176
166	0x3e03276f	0.12808011
167	0x3c82a7f9	0.015949236
168	0x3dda2145	0.10650877
169	0xbf027bb0	-0.5096998
170	0xbec48724	-0.38384354
171	0x3f0f5c39	0.56000096
172	0xbd6c3352	-0.05766613
173	0x3f8a3f82	1.0800631
174	0xbf0fcc57	-0.5617117
175	0xbf77acf1	-0.9674826
176	0x3eeb46fd	0.45952597
177	0xbf2b9eb5	-0.6703904
178	0xbe1455db	-0.14485876
179	0x3f39a811	0.72522074
180	0x3e887faf	0.26659915
181	0x3efe7b7b	0.49703583
182	0xbfb2ba6b	-1.396314
183	0xbe08c516	-0.13356432
184	0x3e8efd4d	0.27927628
185	0xbd3dd555	-0.046346027
186	0xbf7eeb2d	-0.995776
187	0xbee38266	-0.44435424
188	0xbda07b1a	-0.0783598
189	0xbf4805d5	-0.781339
190	0x3f008d08	0.50215197
191	0x3da05a00	0.07829666
192	0xbec1d9a2	-0.37861353
193	0xbf1ce0fb	-0.6128079
194	0x3ec4195f	0.38300607
195	0x3f87ff65	1.0624815
196	0xbee73cc3	-0.45163545
197	0x3fc286c0	1.5197372
198	0xbf42f056	-0.76147974
199	0xbecf276f	-0.40459773
200	0xbf44585a	-0.76697314
201	0xbf3b7cb2	-0.73237145
202	0x3f3bbe16	0.73336923
203	0x3f280b12	0.6564189
204	0xbe94342c	-0.28946054
205	0x3ec5da7c	0.38643253
206	0x3eaf5ed1	0.34252027
207	0xbe8c5a90	-0.27412844
208	0xbf548e2e	-0.8302945
209	0xbfa2c0c1	-1.2715074
210	0x3d7c419a	0.061586
211	0xbf3233d7	-0.6961035
212	0xbfabc8ae	-1.3420618
213	0xbf174980	-0.5909653
214	0xbf9396f3	-1.1530441
215	0xbece67aa	-0.40313464
216	0x3e86cbd6	0.2632739
217	0xbed806f3	-0.42192802
218	0x3dd58362	0.1042545
219	0xbf948470	-1.1602917
220	0xbfdbe5e6	-1.7179534
221	0xbf2a9b7a	-0.6664349
222	0x3f120aaa	0.5704752
223	0xbed77d36	-0.42087716
224	0xc007901c	-2.1181707
225	0x3e549921	0.20761539
226	0xbfe3721d	-1.77692
227	0x3e9157fc	0.2838744
228	0xbfa00faa	-1.250478
229	0xbf120482	-0.5703813
230	0x3f10c636	0.56552446
231	0xbd07ab64	-0.033122435
232	0x3edbaf5f	0.42907235
233	0xbec40369	-0.38283852
234	0xbeb3243b	-0.3498858
235	0x3e450ac0	0.19242382
236	0xbec3acba	-0.38217717
237	0x3e4dcb26	0.20097026
238	0x3e4a5f94	0.19763023
239	0xbf29f879	-0.66394764
240	0xbd95b020	-0.07308984
241	0xbf1b6763	-0.6070463
242	0xbf5553aa	-0.83330786
243	0xbecd508a	-0.4010051
244	0xbe032f15	-0.12810929
245	0xbf08d20c	-0.53445506
246	0x3e987851	0.29779294
247	0xbfa1ab65	-1.263043
248	0xbd8a795e	-0.0676143
249	0xbe8915f7	-0.2677457
250	0xbf33367d	-0.7000502
251	0x3d3b89df	0.04578578
252	0xbf8c0e48	-1.0941858
253	0x3f757a25	0.958895
254	0xbe72e464	-0.23719937
255	0xba221116	-0.00061823556

conv3.bias f4 [32]
0	0xbfa9d9d2	-1.3269598
1	0xbfa40338	-1.2813482
2	0xbfe5ad72	-1.7943556
3	0xbff1de0e	-1.8895891
4	0xbf273ded	-0.65328866
5	0xc000a531	-2.0100825
6	0xbf97bba7	-1.1854142
7	0xbfedb0bd	-1.8569561
8	0xc01a89a3	-2.4146507
9	0xbf5ff019	-0.87475735
10	0xbfc3b8e2	-1.5290797
11	0xbfb20d07	-1.3910226
12	0xbfc567fa	-1.5422356
13	0xbf6a4528	-0.91511774
14	0xbfd06bab	-1.6282858
15	0xc009ac0d	-2.1511261
16	0xbfdc9b6c	-1.7234931
17	0xbfe1b450	-1.7633152
18	0xc013a39a	-2.3068604
19	0xbfdddbc9	-1.7332698
20	0xbf6bea8b	-0.9215476
21	0xbfb31a3a	-1.3992379
22	0xbfd46099	-1.6591979
23	0xbf73f0f9	-0.9528957
24	0xbf8d79ae	-1.1052759
25	0xbfd0017d	-1.6250454
26	0xbf8bcc5e	-1.0921743
27	0xbfa8a6a6	-1.3175857
28	0xbfacff09	-1.351533
29	0xbfd13556	-1.6344402
30	0xbfdf06e4	-1.7423978
31	0xbfd8c2f5	-1.6934496

fc.weight f4 [10, 32]
0	0x3eed0f7b	0.46300873
1	0xbf96fb5b	-1.1795458
2	0x3f4392eb	0.76396054
3	0xbdcf4181	-0.10119916
4	0xbf133c75	-0.57514125
5	0xbf8583fb	-1.0430902
6	0x3ff31135	1.8989626
7	0x3d7bb547	0.061452176
8	0x3f0c7f40	0.5488167
9	0xbe2fa595	-0.17153008
10	0x3f353ff9	0.7080074
11	0x3f9590fd	1.1684872
12	0x3fa3380c	1.2751479
13	0x3f7f4683	0.9971697
14	0x3ebb8428	0.36624265
15	0x3fbc520e	1.4712541
16	0xbf375d65	-0.71626884
17	0x3f385afb	0.72013825
18	0xbfd194d7	-1.6373547
19	0xbdd304d4	-0.10303655
20	0x3f1d9b08	0.61564684
21	0x3fb17d03	1.3866276
22	0x3f726145	0.9467967
23	0xbf782cbf	-0.9694328
24	0x3f288e62	0.6584226
25	0x3f038b6c	0.51384616
26	0x3f84c956	1.0373943
27	0x3fb91992	1.4460928
28	0xbf933abd	-1.15023
29	0xbfac9084	-1.3481603
30	0xbee561f9	-0.4480131
31	0xbe1b5c8a	-0.1517202
32	0xbfe3efcd	-1.7807556
33	0x3f3a2340	0.7271004
34	0xbfb25175	-1.3931109
35	0xbf0ba032	-0.54541314
36	0xbf0a6801	-0.5406495
37	0xbf3fa635	-0.74862987
38	0x400c54f3	2.192685
39	0xbffed0d8	-1.9907484
40	0xbe30517d	-0.17218585
41	0x3faab121	1.3335305
42	0x3ea7d5cc	0.32780302
43	0x3f99b397	1.2007931
44	0x3fb34292	1.4004691
45	0xc006e5ba	-2.1077714
46	0xc0075c66	-2.1150146
47	0xbd9311f2	-0.07181157
48	0xbfff1717	-1.9928921
49	0xbf58bf4a	-0.84666884
50	0x3ee9ce19	0.45665053
51	0xbff06fbf	-1.8784102
52	0xbf3e3228	-0.7429528
53	0xbfd0e4d8	-1.6319838
54	0xbf1c8538	-0.61140776
55	0xbf164fce	-0.5871552
56	0xbe41d545	-0.18929012
57	0x3f0c8531	0.54890734
58	0xc01ecae4	-2.4811335
59	0xbfcb84dc	-1.589992
60	0xbeed848e	-0.46390194
61	0x3ee274ce	0.4422974
62	0x3f9d1dc4	1.2274709
63	0x3f88177f	1.063217
64	0xbf66951b	-0.90071267
65	0xbfdc0d95	-1.7191645
66	0x3f5ece65	0.87033683
67	0xbfa31c0c	-1.2742934
68	0xbee952b5	-0.45570913
69	0x3f7e48aa	0.99329627
70	0xbfd7cebd	-1.6859967
71	0xbf4692a9	-0.77567536
72	0x3f5b5540	0.85676956
73	0xbfb9baf2	-1.4510176
74	0x3f5f2829	0.87170655
75	0xbea6169d	-0.32439128
76	0xbd8d48b1	-0.068986304
77	0x3f8c6c3f	1.0970534
78	0xbed4275f	-0.41436288
79	0x3eceba70	0.40376616
80	0xbd8e1698	-0.06937903
81	0x3fa5d1fb	1.2954706
82	0x3f5fae89	0.87375695
83	0xbfa52c6a	-1.2904179
84	0x3f3bc5ec	0.7334888
85	0xbeaf83d4	-0.34280264
86	0xbeb23ae5	-0.34810558
87	0xbd8cb522	-0.06870486
88	0x3fb6e3b0	1.4288235
89	0x3f616c80	0.8805618
90	0xbf48c482	-0.7842485
91	0x3f55f817	0.8358168
92	0x3f202e33	0.62570494
93	0x3fad0402	1.3516848
94	0x3f90c363	1.1309627
95	0xc00689e1	-2.1021655
96	0xbefa3c63	-0.48874196
97	0xbea46b19	-0.3211296
98	0xbede800d	-0.4345707
99	0x3ed896c0	0.42302513
100	0x3f30dc89	0.6908651
101	0x3f6e81cf	0.9316682
102	0xc014c5ca	-2.324572
103	0x3fa002f5	1.2500902
104	0xbe58745e	-0.2113814
105	0xbfc9edca	-1.5775692
106	0x3f410d5c	0.7541101
107	0xbf9f52a2	-1.2447093
108	0xbf8cd345	-1.1001974
109	0x3f8cde31	1.1005307
110	0xbf9d7163	-1.2300228
111	0xbfcdfab9	-1.609214
112	0x3f6202a9	0.8828531
113	0xbda89b04	-0.08232692
114	0x3f5a4e4f	0.8527574
115	0x3f99e863	1.2024044
116	0xbfcc1f2e	-1.5947015
117	0x3fb381d7	1.4023999
118	0x3f9c6c53	1.2220558
119	0xbf8ff61d	-1.1246983
120	0x3f9d81c0	1.2305222
121	0xbf1558b3	-0.5833847
122	0xbf3cb512	-0.7371379
123	0x3eec025b	0.46095547
124	0xbf076d15	-0.5290082
125	0x3f6b718c	0.91970134
126	0x3fa364bf	1.276512
127	0x3f3e1c54	0.74261975
128	0xbfae6e25	-1.3627363
129	0x3fa106b6	1.2580173
130	0x3f440249	0.76565987
131	0x3f1a6d1c	0.6032274
132	0x3f98de87	1.194291
133	0x3fd49231	1.6607114
134	0x3eb0ff56	0.34569806
135	0xbf9fe4a4	-1.249165
136	0x3f60fc65	0.87885123
137	0x3fcf0973	1.6174759
138	0xbf8faf07	-1.1225289
139	0xbadc78b7	-0.0016820644
140	0xbf5b819f	-0.8574466
141	0xbf9aafc8	-1.2084894
142	0x3f86b79e	1.0524786
143	0x3fd1dbbc	1.6395183
144	0x3f92435e	1.1426809
145	0xbf4148ab	-0.7550151
146	0x3de84f72	0.11343278
147	0x3e3e3845	0.18576153
148	0x3ef031e5	0.46913067
149	0xc006acd5	-2.1042988
150	0xbfea2064	-1.8291135
151	0xbe612d23	-0.21989875
152	0xbe7e4413	-0.24830656
153	0xbf7768dc	-0.9664438
154	0xbe4170e5	-0.18890722
155	0xbf6c732a	-0.92363226
156	0xbfa26ca1	-1.2689401
157	0xbe56dfc9	-0.20983805
158	0xbec4d43a	-0.38443166
159	0x3ec5739b	0.38564762
160	0x3fcf7d7c	1.621017
161	0xbe7948d9	-0.24344195
162	0xbe182393	-0.1485732
163	0x3e85aba1	0.26107505
164	0xbe6d6c42	-0.23185828
165	0xbefa6535	-0.4890534
166	0xbdf9b308	-0.121923506
167	0x3fb029fd	1.3762814
168	0xbe93a87e	-0.28839487
169	0xbe3d9495	-0.18513711
170	0x3f4cfa87	0.80069774
171	0xbfa2cda8	-1.2719011
172	0xbf2d146d	-0.6760929
173	0xbf8e1b51	-1.1102086
174	0x3f7017e6	0.93786466
175	0x3d9b000b	0.075683676
176	0xbf9bf304	-1.2183537
177	0xbcad6a32	-0.021168802
178	0x3ee5be57	0.4487178
179	0x3f96d0c5	1.1782461
180	0xbe9aa2a0	-0.30202198
181	0x3fa2e578	1.2726278
182	0x3fbd1973	1.4773391
183	0x3e2182a0	0.15772486
184	0xc0301da6	-2.7518096
185	0xbf3cedd6	-0.7380041
186	0x3fa53fa0	1.2910042
187	0xbf886f4d	-1.0658966
188	0x3f9d3b43	1.228371
189	0x3f08bb7f	0.53411096
190	0xbfc6317f	-1.5483855
191	0x3f1a6e24	0.6032431
192	0xbeec06d7	-0.46098968
193	0xbfba02db	-1.4532121
194	0xbe665e9a	-0.22497025
195	0xbdbe8e32	-0.09304465
196	0xc00384c4	-2.0549784
197	0xbfc8b33f	-1.5679702
198	0x3ff0b6d1	1.8805791
199	0x3f9ebcf8	1.2401419
200	0x3f64ee2f	0.8942594
201	0x3fa666ce	1.3000124
202	0x3f2b8393	0.6699764
203	0x3f473ecc	0.77830195
204	0x3ea2ac51	0.31772092
205	0xbfbc14d6	-1.4693859
206	0x3f824257	1.0176495
207	0x3e112138	0.14172828
208	0x3e6b44cd	0.22975464
209	0x3f79e802	0.9761964
210	0xc0089c61	-2.1345446
211	0x3e6db257	0.23212563
212	0x3f5d5e4e	0.8647202
213	0x3f881aff	1.0633239
214	0x3efdd4c8	0.49576402
215	0x3fe5735a	1.7925828
216	0xc002d329	-2.0441382
217	0x3eee429e	0.465352
218	0xbf7b49bb	-0.9815938
219	0xbfb4b520	-1.4117775
220	0x3f9cf343	1.2261738
221	0xbfce33e6	-1.6109588
222	0xc00c6695	-2.193761
223	0xc00e185b	-2.2202365
224	0x3f51c486	0.81940496
225	0x3fb3e995	1.4055659
226	0x3f68d158	0.90944433
227	0xbf53c109	-0.82716423
228	0x3f71702a	0.94311774
229	0x3fa7b916	1.3103359
230	0xbf40509d	-0.75123006
231	0xbfa8e52e	-1.319494
232	0xbf97d218	-1.186099
233	0xbf6a6ccd	-0.91572267
234	0xc01829da	-2.3775544
235	0x3ea04b99	0.31307676
236	0x3de436d7	0.11143272
237	0x3f8a5e5b	1.0810045
238	0xbfc95a48	-1.5730677
239	0x3e060aa2	0.13089994
240	0xbe7e4f5d	-0.24834962
241	0xbf6bdabd	-0.92130643
242	0x3f6e7b9d	0.9315737
243	0xbf8c4ff4	-1.09619
244	0xbfb282b8	-1.3946142
245	0xbfc90a95	-1.5706354
246	0xbff88fbe	-1.9418867
247	0x3fb97c21	1.4491006
248	0x3ee3f8d3	0.44525775
249	0xbebb6f3b	-0.366083
250	0x3f64eebf	0.894268
251	0x3f9aef22	1.2104228
252	0x3fa39151	1.2778722
253	0x3f88b7c8	1.0681086
254	0x3f7f5b2c	0.9974849
255	0x3f898de9	1.0746433

fc.bias f4 [10]
0	0xbfba8f2a	-1.457494
1	0x400189d3	2.0240371
2	0xbea8f642	-0.3300038
3	0xbf1816af	-0.5940961
4	0x3f0f4a5b	0.5597283
5	0x3e2ef0bf	0.17084025
6	0xbe11f4b1	-0.14253499
7	0xbeb4a17f	-0.35279462
8	0xbe9f7e91	-0.3115125
9	0x3e766792	0.24062946
