orig.pth (torch_old, 12992 bytes, 5 tensors)

conv1.weight f4 [8, 1, 3, 3]
00000000: 4803 3cbf 1aa3 e4bf 09f5 763e 73cf 90bf
00000010: cf25 5cbe 4178 da3f aa09 9cbf fde6 3c3e
00000020: fcde c03f baf4 7e3f 116a f93f 487b d93f
00000030: 0192 53c0 6cb0 10bf 454d 0fc0 d4fc f1bd
00000040: 4e11 65be b91f 91bf 840c 323e 046b 953f
00000050: c303 633f 8cbd 9a3f d21e 903f 8e09 fd3e
00000060: 590c ecbf c4a9 03c0 4ae7 debf cfbb 24be
00000070: baba 48bd 3334 fdbb bde3 aabd a642 3fbd
00000080: b926 e3bd 72fb 8cbe c620 8e3d 6865 65be
00000090: fd67 203f 560e b7be 5fcc 98bf 3bd0 5f3f
000000a0: 131b 3d3f c8a8 f3be 192e 97bc 34dd 503f
000000b0: 38d2 4f3f 55f4 da3e 7c33 193f 6ed8 58be
000000c0: 428a 80bb 4cfb 7d3f 8ddb 0f40 2fd7 edbf
000000d0: 0df2 b5bf 1512 973d a220 1fbf cc14 ac3f
000000e0: 9829 483f c3cb b0bf 7a99 323f 42a3 65be
000000f0: ba04 0cbe 26da c23f 7801 1e3e 7917 3a3f
00000100: 7452 f43e ed44 8d3e aa7e 9c3f 1893 4a3f
00000110: 4d72 f3be e0ec a73d 8003 c1be 9d86 cebf
-0.73442507 -1.7862275 0.24116911 -1.1313308 -0.21498798 1.7067949 -1.2190449 0.1844749
1.506805 0.99592173 1.9485494 1.6990747 -3.3057864 -0.565192 -2.2390912 -0.11815801
-0.22369882 -1.1337806 0.17387587 1.1673284 0.88677615 1.2089095 1.1259406 0.49421352
-1.8441268 -2.0572367 -1.7414334 -0.16087268 -0.0490062 -0.00772717 -0.08344219 -0.04669442
-0.1109137 -0.27535588 0.06939845 -0.22401965 0.62658674 -0.35753125 -1.1937369 0.8742711
0.73869437 -0.47589707 -0.018454598 0.8158753 0.81180143 0.42764536 0.59844184 -0.21176311
-0.0039227316 0.99211574 2.2477753 -1.8581294 -1.4214493 0.07376496 -0.6215917 1.3443847
0.7818847 -1.3812183 0.69765437 -0.22425559 -0.13673678 1.5222824 0.15430248 0.72692066
0.47719157 0.2759165 1.2226155 0.791307 -0.47548142 0.08199477 -0.37697983 -1.6134831

conv2.weight f4 [16, 8, 2, 2]
00000000: da47 e5be 5a9d 9a3f b2b9 8b3f 5574 2a3d
00000010: 1331 c13e 935c 09bf cff7 4d3d 6e7a e13e
00000020: b254 203f 04b5 81bf 0cd7 833d fea0 753f
00000030: 9cde bb3d e00c 9a3d 89d0 123e 83ca 78bd
00000040: 1b9f a23e d94a 65bf 5a2b 43bf b428 dabe
00000050: c367 843e 4310 73bf 867a 273f b12f 07bd
00000060: 2fe0 9abf 6912 813e 787e 303f 04b6 16bf
00000070: 2d21 3bbd 37f8 98bf 521e 73bf fb85 313f
00000080: 9f49 5c3e 132a ec3e 258c 21bf 996d 28bf
00000090: 31c5 09be 824b 87be 1aee e73e fda4 343f
000000a0: 4525 e83d adab 6f3f d3fd 1a3f 66ff 76bd
000000b0: 8b69 dfbd c4fa 56bd c37c fcbd 679a 1a3e
000000c0: eed6 3ebe dfcb 29bf 0df3 1c3f 0982 7a3f
000000d0: ab79 3dbf e777 1abf 07ee 493f 1c71 f43f
000000e0: aa1e 653e fe3c 42be 5aa6 a8be f044 86be
000000f0: 7bc6 8d3d 48ef 02be 015e eebe ad29 f0be
00000100: 1a06 123f 3e09 523f d957 d13e 5813 8cbf
00000110: d6f6 9abe eec4 3dbf 0471 17bf 3d9a 13bf
00000120: 50c5 1ebf 06d3 44bf 7898 fbbe d3ba 16bf
00000130: 19e0 123e 6719 82bd ce61 86bc 60c3 813d
00000140: dc33 73bf 3d57 83bd 2731 883e 10a0 763f
00000150: 66e0 1a3e bae2 9ebf 7dab e1be 539e 2dbe
00000160: dc43 1fbe b175 913f 2551 7ebe c78a 97be
00000170: 01ba dfbf 746b a93f 8fa1 a9bd 8463 973f
00000180: 869e 2b3f ac13 15be 71fc 21be 04f2 c53f
00000190: c06c 58bf bf0e 22be 5658 90bf eb46 b4be
000001a0: 1957 f1be 9a09 0bbf 26c4 bcbe 8a1f 16be
000001b0: fe42 8e3d 3e27 0bbe 2b15 003e 3cca 943b
000001c0: 2c02 09be 2725 49bf da10 fd3e c1a7 9e3d
000001d0: 3343 13bf f07b 2dbf 6cd8 18bf 4424 24bf
000001e0: b285 4fbe 09ec b4bf a9fe 98be 66b9 c63f
000001f0: dd39 933f 8cb6 c4be 27bf 283f df32 4c3f
00000200: 3b5f 77bf 46d3 8fbd 5f25 e5bf 4edd e7bf
00000210: f265 503f 969e f5bd e8d3 a13f 2c30 113f
00000220: a7d3 e1bc 64b3 6e3e 60d2 053f dae2 163f
00000230: d473 013e e7a9 e7bd 92cd d53d 35ae d4bd
00000240: 07ba c03f 0552 453f dd0a af3d bbbc f2bf
00000250: 378e dc3f cf4f 823c 2aa5 093e f846 173e
00000260: 2b6d 49bf 6aab 9c3e b22a 32bf 236f b0bf
00000270: 92ee 5fbe a17c 8b3e a7fd dcbf 4578 98bf
00000280: 7a18 c9be 1adb 20be 8f3b 28bf 0afd 6ebf
00000290: 28c2 05be 6978 14bf 9f45 a63e 072d 95bf
000002a0: 9321 ddbe ccc6 75bf 2b1e 213f bf24 8ebf
000002b0: ee75 33bd a16a 403d e333 0d3d 9f34 d63c
000002c0: fe81 893f f287 503f eaaa 3e3f c244 7d3f
000002d0: 7ab2 403f 065f 0fbf 199e 773d ec4d d53d
000002e0: 8fe6 eebe 30e0 5b3e ec27 493d b365 453e
000002f0: 03ea 34bf f8b9 063d ad54 ae3e 23c4 bd3e
00000300: 4a58 dcbd c0b9 94bf 912e 3abd 9794 18bf
00000310: 8d4d 94be 68a2 9f3f fbdc 023f 66b7 603f
00000320: 8530 9cbf bce4 14be 98fc 9a3e 9e4e 25bd
00000330: 8d04 acbd b948 213e b685 4ebd 2c28 77bd
00000340: 3eb2 803e 81ac 383f 87b1 ea3e 2149 1c3f
00000350: 298a 5abf b5ff 123e 15c4 e83d 6bce 853f
00000360: 5490 7fbf dcc5 aebf 04bd c73e 3efc a93e
00000370: 4a9e 0bc0 6ce9 2ec0 b166 333f 86b6 6e3f
00000380: 8865 16bf f6a1 8dbf d0da de3e 1f08 ccbe
00000390: 62e7 113c 0a01 973e de2a 9abe a7e4 cbbf
000003a0: ba4b 6e3e b83e 7e3d ff67 81bf 0c55 edbf
000003b0: f49a d9bd c88c 893d 823e 75bd 6998 b23d
000003c0: 8c76 f83d 0cfe 03bf d894 ab3f 26ae 873f
000003d0: c34c 88be 353c 3bbe bcbf d93f 0a88 0bbe
000003e0: 444c bfbf ee47 dabe 7d25 9e3f d813 b23b
000003f0: 9633 b5bf 0efa efbf c790 a9bd 83a1 163e
-0.4478138 1.207927 1.0916045 0.04161485 0.37732753 -0.5365688 0.050285157 0.4403872
0.62629235 -1.0133367 0.06437501 0.9594878 0.09173319 0.07521987 0.14337362 -0.060740005
0.31762013 -0.89567333 -0.76238024 -0.4260918 0.25860414 -0.9494669 0.6542133 -0.033004466
-1.2099665 0.25209358 0.68942976 -0.58871484 -0.045685936 -1.1950749 -0.9496814 0.6934506
0.21512459 0.4612585 -0.6310447 -0.6579223 -0.13454129 -0.26424795 0.45298845 0.7056425
0.113352336 0.9362133 0.60543555 -0.06030216 -0.109088026 -0.052485242 -0.12328484 0.15097962
-0.18636677 -0.6632671 0.61308366 0.9785467 -0.74013776 -0.60339206 0.78878826 1.9097018
0.22374979 -0.18968579 -0.32939416 -0.2622447 0.06922623 -0.12786591 -0.46556094 -0.46906796
0.5704056 0.8204535 0.40887335 -1.0943403 -0.30266446 -0.74128616 -0.59156823 -0.57657224
-0.62019825 -0.76884496 -0.49139762 -0.5887882 0.14343299 -0.06352501 -0.016404059 0.06336093
-0.95001006 -0.06413124 0.266 0.96337986 0.15124664 -1.2412941 -0.44076148 -0.16954927
-0.1555323 1.1364042 -0.24835642 -0.29598066 -1.7478639 1.3235917 -0.08282768 1.1827245
0.6703876 -0.14558285 -0.15818955 1.5464482 -0.8454094 -0.15825938 -1.1276958 -0.35210356
-0.47136763 -0.54311526 -0.368684 -0.14660469 0.069463715 -0.13589188 0.12508075 0.00454071
-0.13379735 -0.78572315 0.4942692 0.0774684 -0.5752441 -0.6776724 -0.59705234 -0.64117837
-0.20265844 -1.4134532 -0.2988179 1.5525329 1.1502033 -0.38420522 0.65916675 0.79765123
-0.96629685 -0.07022719 -1.790203 -1.8114412 0.81405556 -0.119931385 1.2642794 0.5671413
-0.027566744 0.2331062 0.5227413 0.589399 0.12641841 -0.11311703 0.104396 -0.1038479
1.5056771 0.77078277 0.08546994 -1.8963846 1.72309 0.015907196 0.13441911 0.14773166
-0.786822 0.3059953 -0.695964 -1.3783916 -0.21868351 0.27243522 -1.7264909 -1.1911703
-0.39276487 -0.1570858 -0.6571588 -0.93354857 -0.13062346 -0.5799623 0.32474992 -1.1654366
-0.43189678 -0.96006465 0.6293666 -1.1104964 -0.04381364 0.04697669 0.03447331 0.026148139
1.0742795 0.81457436 0.74479544 0.9893304 0.75272334 -0.5600437 0.060453508 0.10415253
-0.46660277 0.2147224 0.049110338 0.19277076 -0.70669574 0.032892197 0.34048977 0.37063703
-0.10759027 -1.1619186 -0.045454565 -0.5960173 -0.28965417 1.2471437 0.5111844 0.87779844
-1.2202307 -0.1454038 0.3027084 -0.04035818 -0.083993055 0.15750398 -0.050420485 -0.060341045
0.25135988 0.7213822 0.45838568 0.61049086 -0.85367066 0.14355357 0.11365525 1.0453619
-0.998296 -1.3654132 0.39011395 0.33200258 -2.1815362 -2.732997 0.7007857 0.9324726
-0.58748674 -1.1065052 0.43526316 -0.39849946 0.008905264 0.2949298 -0.3011083 -1.5929154
0.23271075 0.062071532 -1.0109862 -1.8541579 -0.10625258 0.06716305 -0.059874065 0.08720476
0.12131986 -0.5155952 1.3404799 1.0600021 -0.26621065 -0.18284686 1.7011638 -0.13626114
-1.494515 -0.42633003 1.235519 0.0054344945 -1.4156368 -1.8748186 -0.08279567 0.1471005

conv3.weight f4 [32, 16, 2, 2]
00000000: 2daa abbe e10f 663e b217 3a3e 503d ccbd
00000010: 6a0b 973f 6529 373f e7e5 243f 0187 c13e
00000020: c161 173e 8941 92be 1674 e73e 877e a1bc
00000030: d90d 5f3e 20e4 61be 02ac 973d 778d 533e
00000040: 17ed bbbd 8d54 313f fba5 5b3e 4e99 babd
00000050: 18da b4bd 7a15 183f 00e8 46bc dc1a 673e
00000060: db9b 60be 94ce 67bf ab48 dabd 5cee 933d
00000070: 71ad fdbe 7c46 64be c825 34be c5b6 6cbe
00000080: 9967 a43e 76a0 203f e9a6 82bd 61a9 16bf
00000090: 915d 6f3f c54b bd3e b6fa 9bbe 61da 73be
000000a0: da99 8fbe 2ee3 3f3f 5217 17be ccf4 5cbd
000000b0: df4a 993e b586 e2bd 3e9c 273f 5a53 90be
000000c0: cee3 14bf 590a bbbf 63ab df3e 1a01 68bc
000000d0: 49ce 4fbf b20f a2bf 0ad7 bbbb 90e9 073e
000000e0: 8cc5 0c3e 28fb 8b3d 63fe 85be a090 d63e
000000f0: e0b1 c0be 132c bc3e 5a57 1ebf 4862 f8ba
00000100: ea58 bd3e aaa6 20bf 6cb2 e83e f4fa 9f3d
00000110: 16d3 dd3d 1e1d d4bd d69c 4f3f b4bf 22bf
00000120: 4fbb 71be cdef 54bf 3799 753f 16f2 c43e
00000130: 0025 bbbf 1a4e 55be d1a9 ed3e dc0c 4fbe
00000140: 3833 d93d 0ac4 91bf 2179 b4bf 4e7b 2bbe
00000150: a6fc 1dbf 6450 c93f afb5 2abf aab5 b3bd
00000160: 742a 753e 4c6d 2c3d a4a6 c0be 2dc5 40bf
00000170: 0a21 d9bd b510 c1be 6139 99bf bf29 a2bf
00000180: 372e e0bd 0af5 68bf 48ef 73be 94d2 16be
00000190: 27f8 ab3d fba3 303f c6c7 a9be c2ac 6ebf
000001a0: eb83 de3e b6dc 9b3f 0ef6 9c3e bb36 17be
000001b0: 65ee 3c3f 006a 07bf 80f5 593f f420 9cbf
000001c0: 6a58 bb3f beef a73e 02f8 28be f853 0a3e
000001d0: 1189 2f3e 2c3b 05bf 5bc0 623e b706 0c3e
000001e0: fb00 7bbf 8142 cc3d 7bd1 2bbc cfa6 713f
000001f0: 57be 67bf e9ae 24bf 8637 0c3f fc9e 76be
00000200: 1054 b33e 450c 123e a341 9b3e f0ad 1bbe
00000210: bb14 8e3e 9c37 ad3f 230d babf 91fa 29bf
00000220: 38d9 c53e 1392 0c3d ac93 4d3f 6a46 873e
00000230: 8218 93be 90d4 733e 59f4 99bc 46f0 2a3e
00000240: 4771 7bbe 43c4 423f 1213 0ebf cd19 453f
00000250: 7e0e c03f 1bec ec3e 8eb9 33bf 3323 d4be
00000260: c6ed b33e 9171 3b3f 7b26 f13e 86f8 0e3f
00000270: 0798 773f 7a2b 0fbc c026 abbe 2085 14bf
00000280: 48a5 23bf 1aa8 34bf 98a1 bf3e 2f0e 15bd
00000290: ea73 40bf 8775 84bf 77b5 97bd ccb1 223e
000002a0: 0344 313f 233b b4bd c6ae 95bc 07ca 323f
000002b0: 293c ebbe d670 9a3e 475c 733c bbd1 83be
000002c0: 8fde 78bf 0dc3 1fbf 1582 bf3e 44d9 ba3e
000002d0: 526a 933e 3ecb 82be b335 873c e635 173e
000002e0: 89d2 bfbd a4fa 36bf e6e4 3e3e 3846 f43e
000002f0: d327 d0be ddea 9fbe 8d5b 42bf e87d 593f
00000300: bb31 bcbd 28a0 babd 0b5f 093f b4ad d13e
00000310: eb02 e0be 1254 c43e 105e 40bf 303c bebf
00000320: a85c 6dbe 2975 9bba ad04 8c3f dbdd 24be
00000330: ef09 eebe a446 493e 054f 2b3f ed40 c83e
00000340: 69ab 88be 0436 fabd c8d9 9fbc 5fbc 1d3f
00000350: 4e45 2cbf 546c 1ebf 449f 90bf dab1 afbf
00000360: d436 aebe ba5d c5be 6e48 8b3f 8edd cabe
00000370: 027b 1bbf 70c8 d93e 8cc6 4a3e d527 b33e
00000380: f385 61bf 04bf 89be b70a 8c3f ff95 1e3f
00000390: 832f 1abf 71d6 353f db4d 1b3f 49b8 7e3d
000003a0: 8f19 0dbf 4b8c 88bf d2e2 af3e b93c 333f
000003b0: 3e3d 72be 8907 03be bbb6 82bf 4e69 57be
000003c0: c917 c9be c2a7 aabd 73ed cdbe e79e 17bf
000003d0: 7ae0 dabe ce37 21bd 31df c33b 0d73 a2be
000003e0: e67e 97be 0334 b8be 30be 23bd e813 0b3f
000003f0: 0567 bebe 2bef 85be f735 083f 2ebe 5f3d
-0.3352827 0.22466995 0.18173102 -0.09972632 1.1800358 0.7154754 0.64413303 0.37798312
0.14783384 -0.28565624 0.45205754 -0.019713653 0.21782626 -0.22059679 0.07405855 0.20659433
-0.09176081 0.6926964 0.21450035 -0.09111272 -0.088306606 0.5940777 -0.012140274 0.2256884
-0.21934454 -0.9054959 -0.106583916 0.07223198 -0.49546388 -0.22292513 -0.17592537 -0.23116596
0.3211029 0.62744844 -0.06379492 -0.588522 0.93502146 0.3697187 -0.30464715 -0.23813774
-0.28047067 0.74956024 -0.1475499 -0.053944394 0.29939935 -0.110608496 0.6547278 -0.28188592
-0.581601 -1.4612533 0.43685445 -0.014160419 -0.8117414 -1.266104 -0.0057324218 0.13272691
0.13747233 0.06835014 -0.26170644 0.41907215 -0.37635708 0.36752376 -0.6185204 -0.0018950189
0.369819 -0.6275431 0.45448625 0.078115374 0.10831277 -0.10357116 0.8109869 -0.63573766
-0.23606609 -0.83178407 0.9593691 0.38465947 -1.4620667 -0.20830575 0.46418622 -0.20219749
0.10605472 -1.1387951 -1.4099466 -0.16746256 -0.61713636 1.5727658 -0.6668348 -0.08774884
0.23941976 0.04209642 -0.37627137 -0.75300866 -0.10602005 -0.3770806 -1.1970636 -1.266899
-0.10946315 -0.909989 -0.23821747 -0.14728767 0.08396941 0.69000214 -0.33160228 -0.9323236
0.4346002 1.2176731 0.30656475 -0.14766972 0.7380126 -0.5289612 0.8514023 -1.2197556
1.4636357 0.32800096 -0.16500857 0.13508594 0.1714213 -0.52043414 0.2214369 0.13674437
-0.9804837 0.09973622 -0.010486956 0.94395155 -0.9052481 -0.6432939 0.5477222 -0.24084085
0.35025072 0.14262493 0.30323514 -0.1520307 0.2775019 1.3532596 -1.4535259 -0.6639796
0.38642287 0.034318995 0.80303454 0.2642091 -0.28729635 0.23811555 -0.018793272 0.1669322
-0.2455493 0.7608072 -0.5549785 0.76992494 1.5004423 0.46273884 -0.7020501 -0.41433105
0.35142344 0.73220164 0.4709967 0.55847967 0.9671635 -0.008738393 -0.33428 -0.5801563
-0.63924074 -0.70569 0.37427974 -0.03639048 -0.7517687 -1.0348366 -0.074076585 0.15888137
0.692444 -0.08800342 -0.018271815 0.6983952 -0.45944336 0.30164212 0.014853544 -0.2574595
-0.972146 -0.62407 0.37403932 0.36493886 0.28792053 -0.25545686 0.016505098 0.14766654
-0.09366328 -0.714762 0.18642005 0.47709823 -0.40655383 -0.31233874 -0.75920945 0.8495774
-0.09189173 -0.09112579 0.5366065 0.40952837 -0.43752226 0.3834539 -0.7514353 -1.4862118
-0.23179877 -0.0011860478 1.0938927 -0.16100256 -0.46491954 0.19655854 0.6691745 0.39112034
-0.26693276 -0.12217334 -0.019513026 0.61615556 -0.6729325 -0.61884046 -1.1298604 -1.3726151
-0.34026206 -0.3854807 1.0881479 -0.39622158 -0.6073457 0.42535734 0.19802302 0.34991327
-0.88095015 -0.26903546 1.094077 0.61947626 -0.6022875 0.71030337 0.60665673 0.062187467
-0.55117124 -1.0667814 0.34352738 0.7001453 -0.23656175 -0.12795843 -1.0212015 -0.21036264
-0.3927596 -0.083327785 -0.40220222 -0.5922684 -0.42749387 -0.03935986 0.005977534 -0.31728402
-0.29589003 -0.35977182 -0.0399763 0.5432725 -0.37187973 -0.26159033 0.53207344 0.05462473

fc.weight f4 [10, 32]
00000000: 0852 59bd 3346 23bf f45f 693f fa1e d6bf
00000010: 0c99 663f 3bbe cd3e 74cf f7be c627 6abf
00000020: 2b93 50bf 3e6a 36be 9333 5bbf 25a2 7abf
00000030: 988c 1f3e 3bd8 dfbe ce7a 1440 00ce 8c3f
00000040: 4ad1 07bf a2b0 29c0 7b7c 583f 36e1 80be
00000050: f0bb 6e3f 43d6 3840 0929 4dbd 9071 59be
00000060: 9372 00c0 0246 523e b9cd 07be b33f d73d
00000070: 4ed1 0240 1f2d d43f c66f 1b3f b56c c8bf
00000080: 928e 1cbf 7ed1 3cbf e1e9 88bf d7c4 553f
00000090: b560 0abf 4260 04bf 9428 203f ab22 5e3f
000000a0: 29b1 553e d3ad dcbe 3cee 81bf 26d8 cebf
000000b0: 0cc0 53bf f778 7c3e c1e8 883f 573f 653d
000000c0: 9a3e a43f 8019 d93f 70d9 ff3f f667 04c0
000000d0: cb68 a4bf 2c8d 33bf 2918 d23e f408 f2bd
000000e0: b86a 783f c8e7 b93e b758 3c3e ec66 7f3f
000000f0: 0243 743f 37bc 34bf 9d98 5abe 3eb8 b13f
00000100: 06c4 333f 67c7 183f 4108 bb3e a3de 27bf
00000110: 66d8 a2bf aa1d 983d a3b0 a7be f49c 15bf
00000120: 3c31 1d3d d6f2 873e 2614 28bf 5239 a7bf
00000130: 62ef ae3e 0bfb abbd 0211 c63f 14b6 943f
00000140: 642f 4c3f a813 f23f d70b 1cbf 52ac 2b3e
00000150: c214 883f eda0 f1bf 9ba9 113f 0132 f73f
00000160: ddb0 02bf 1c93 9f3f 5a86 213f 2f3a e13f
00000170: 4363 f6bf 4d7e 953d 71a1 ddbf 087d edbf
00000180: c5a1 363f 9dc6 953f 0a42 ccbf 6985 bbbe
00000190: f54a a13f edc8 f53c 9564 bfbf bee2 35bf
000001a0: 0cc1 0a3d bf54 f1bf 7545 a33b 6c90 423f
000001b0: c974 823e b5d4 2b3d d30f 88bd 4acd e8be
000001c0: 86f0 bb3e de8b a83e 9ff8 b73e 112a 023f
000001d0: 043b fc3e 012e d4bf f90e 34c0 444d 13bf
000001e0: 45de 4bbf a37c 0540 19fe c3bc cb3a 83be
000001f0: 2c91 afbf 5bc9 7f3f 6d3e 533f 9b5b e03f
00000200: 92da e73f 59c3 13be 8112 863f 0abd 0340
00000210: d354 07c0 932f c0bf 97c8 553f b07f 2a3f
00000220: 14cf 4dbf ebf7 293d 1811 cd3c f70a 9a3e
00000230: a109 2fbf ea0a 163f 9d44 b9bf 41ef 8d3f
00000240: 5f08 c9be a4d2 613f 2586 e2bf fb2d 5abe
00000250: f5dc 213f f79b c43e 2823 f23f 8989 f4be
00000260: 73bf d43f 7346 9ebe 611a e5bf 9666 8fbf
00000270: 3e5b 093f 4e64 2bc0 6dbe 88bf e360 0f3f
00000280: bb5a 873c e3f7 11bf ad8b db3e d1ac 07bd
00000290: dc60 4f40 2e16 233f 3eda c53f ff13 9bbc
000002a0: f39f b53f a758 46bd e223 43bf 9e40 e03f
000002b0: 51ad 05bf 91cb 4cbf cc01 8abf 3a34 79be
000002c0: 3dec b5bf 02f5 44bf c420 053e 7b32 ec3f
000002d0: 0c9b 15c0 bce6 2dbf bd23 1c3d e4dd 84be
000002e0: 9d9a 0bbf c714 75bf a67e 57bf 3a90 b7bf
000002f0: 30f8 bebe 63a4 b8bd b67b c23f 5caf b33e
00000300: 86e6 36bf ee82 11c0 f001 403e 2160 5b3f
00000310: f0fb a83f 8f3f a83f 62b2 8d3e c9c3 da3f
00000320: c377 0840 7f76 113f 530d b13f 91c4 b6be
00000330: 1763 1cbf f555 28c0 dd7e 9d3f 1ab3 0d3f
00000340: f608 b2be 055c 1cc0 b951 afbf 9945 843f
00000350: f16f 03c0 6cdb 0d3f 78b5 54be b52d 003f
00000360: f275 7fbf fbb1 da3e defc df3e 3222 603e
00000370: 38aa cc3e 38c1 0c3f 3e2a 433f bf41 51bf
00000380: 5b48 3abf c47a a83f 60aa ae3f 7000 6ebf
00000390: 78ff 2ec0 1121 dfbf 2a49 c03f 82c7 113e
000003a0: e439 d3bf aa4e cdbe 4c06 7ebf ba31 d2be
000003b0: 33c5 1dbe 6f0c 6b3f 1456 f1bf 182a 72bf
000003c0: 0bc5 463f c3d0 cb3e 6696 753f 4835 9bbf
000003d0: 834d 3f3f 1eca 8e3f afed adbe 202d 8e3f
000003e0: 8e39 f33f 91da 52bf 4af5 c53f 6702 063e
000003f0: ca1e acbf b193 0cbf dd7f 9fbd 4507 cd3f
-0.053056747 -0.6377899 0.9116204 -1.6728203 0.9007728 0.40184197 -0.48400462 -0.9146694
-0.8147456 -0.17813966 -0.8562557 -0.9790366 0.15580976 -0.43719658 2.3199954 1.1000366
-0.53053725 -2.6514058 0.8456494 -0.25171822 0.9325552 2.8880775 -0.050087962 -0.21234727
-2.006993 0.20534518 -0.1326207 0.105101965 2.044025 1.657627 0.6071743 -1.5658175
-0.61155045 -0.7375716 -1.0696374 0.8350348 -0.54053813 -0.5170938 0.6256192 0.8677165
0.20868362 -0.43101367 -1.0150828 -1.6159713 -0.82714915 0.2465552 1.0696031 0.05596861
1.2831604 1.6960907 1.9988232 -2.0688453 -1.284448 -0.70137286 0.41034058 -0.11818114
0.9703784 0.36309648 0.18393217 0.9976642 0.95414746 -0.70599693 -0.2134728 1.3884351
0.70220983 0.59679264 0.36529735 -0.6557409 -1.272229 0.07427533 -0.3275195 -0.58442616
0.03837703 0.26552457 -0.65655744 -1.3064368 0.3416701 -0.08397492 1.547394 1.1618066
0.7975981 1.8912249 -0.60955566 0.16764954 1.0631335 -1.8877236 0.5689942 1.9312135
-0.5105112 1.2466769 0.6309563 1.7595881 -1.9249042 0.072994806 -1.7314893 -1.8553782
0.7134059 1.1701237 -1.5957654 -0.3662522 1.2601 0.030003035 -1.495257 -0.71049106
0.03387551 -1.8853987 0.004982645 0.7600162 0.25479725 0.0419509 -0.06643643 -0.45469123
0.36706942 0.3291921 0.3593187 0.5084544 0.49263775 -1.6576539 -2.8134139 -0.57539773
-0.7963603 2.0857322 -0.023924874 -0.25630793 -1.3716178 0.9991662 0.8251713 1.7527956
1.8113577 -0.14429988 1.0474397 2.058413 -2.1145523 -1.5014518 0.835092 0.66601086
-0.803941 0.0414962 0.025032565 0.3008649 -0.6837407 0.58610404 -1.4474064 1.108864
-0.392642 0.8821204 -1.7697188 -0.21306603 0.6322778 0.38400242 1.8916979 -0.4776118
1.6620926 -0.30913123 -1.7898675 -1.1203182 0.5365485 -2.677997 -1.0683113 0.5600721
0.016522756 -0.5701887 0.42880002 -0.033123795 3.2402868 0.6370572 1.5457227 -0.018930433
1.4189438 -0.04842439 -0.7622663 1.751972 -0.52217585 -0.7999812 -1.0781798 -0.24336329
-1.4212719 -0.7693635 0.1300078 1.8452905 -2.3375883 -0.679302 0.03812002 -0.2595054
-0.54532796 -0.9573483 -0.84177625 -1.434089 -0.37298727 -0.09015729 1.5194004 0.35094726
-0.714455 -2.2736163 0.18750739 0.85693556 1.3201885 1.3144397 0.27675158 1.7090999
2.1323097 0.56821436 1.3832191 -0.35696843 -0.610887 -2.6302464 1.2304341 0.5535141
-0.34772462 -2.4431164 -1.3696815 1.033374 -2.0537074 0.55412936 -0.2077235 0.50069743
-0.99789345 0.42713913 0.4374761 0.21888044 0.39973617 0.5498233 0.7623633 -0.81740946
-0.72766656 1.3162465 1.3645744 -0.9296942 -2.7343426 -1.7431966 1.5022328 0.14236262
-1.6502042 -0.40099078 -0.9922836 -0.41053563 -0.15407257 0.9181585 -1.8854394 -0.9459548
0.77644414 0.3980771 0.95932615 -1.2125635 0.7472765 1.1155431 -0.339704 1.1107521
1.9001939 -0.82364756 1.5465481 0.13086854 -1.3446896 -0.5491286 -0.0778806 1.6017843

fc.bias f4 [10]
00000000: 532d 01c0 bad7 7f40 587b 97bf fb46 9dbe
00000010: d657 d13d 5fa6 66be 161d 1fbf ed39 b13e
00000020: 3e37 7dbe 7c21 8f3e
-2.0183914 3.997542 -1.1834517 -0.30718216 0.102218315 -0.22524403 -0.62153757 0.34614506
-0.24728104 0.27955234
