qa_best.pth (torch_old, 20206 bytes, 20 tensors)

conv1.weight f4 [8, 1, 3, 3]
000000 77 dc 23 40 17 a1 2f bf 28 cb 72 bf 6d 8d 8d 3f
       2.560331 -0.6860518 -0.9484124 1.1058785
000010 d2 49 d5 bd f5 24 96 bf 97 75 0d 3f 34 01 fb 3f
       -0.10414471 -1.1730028 0.5525755 1.9609742
000020 34 f9 cc 3f 47 74 9e bf 24 7a c0 3e 53 7c 31 bf
       1.6013551 -1.2379235 0.37593186 -0.6933033
000030 34 4a f0 be d6 6a b8 3e 46 55 d4 3e 05 0e fb 3f
       -0.46931612 0.3601901 0.41471308 1.9613653
000040 af 3f ea 3e 84 c4 5d 3f f7 5b 9f bf e5 8e f3 3f
       0.45751712 0.86627984 -1.244994 1.9027983
000050 21 6b 97 3f 06 7c 7b bf 00 6c f4 3f b5 d2 8b be
       1.1829568 -0.9823612 1.9095459 -0.27309194
000060 16 e9 96 3f c0 07 a0 3f 2a 71 a3 bf bd 50 00 be
       1.1789882 1.2502365 -1.276891 -0.12530799
000070 e3 2f 6c bf d5 54 c0 3f f7 7c d7 bf 9a 73 a6 be
       -0.9226057 1.5025889 -1.6835011 -0.32510072
000080 03 e9 fe 3f 28 ea e4 be ef c3 40 3f 0d dc 01 3f
       1.991486 -0.44709897 0.7529897 0.50726396
000090 7b 17 fd 3c 84 1f 17 3f 7b b2 27 3f 93 cf 3b 3e
       0.030894985 0.59032464 0.65506715 0.18340902
0000a0 68 1e df 3f 62 c1 f9 3f 44 33 35 c0 ed f1 03 c0
       1.7431154 1.9512141 -2.831254 -2.061641
0000b0 83 49 46 c0 85 6d f3 3e a9 ea 02 40 07 a7 22 40
       -3.0982368 0.47544494 2.0455725 2.5414445
0000c0 d1 6a 42 c0 93 b2 5e bf 9b 59 33 c0 25 91 ed be
       -3.0377696 -0.8699123 -2.802344 -0.463998
0000d0 ed 16 43 bf da d1 19 be 55 24 a1 3f cc 70 35 3f
       -0.76206857 -0.15021458 1.2589213 0.7087524
0000e0 85 40 6d bc 42 66 a9 3f 24 e8 38 3f 46 a5 60 bf
       -0.014480715 1.3234332 0.7222922 -0.8775219
0000f0 ee 64 9f 3e 72 6f 92 bf 43 bc a4 bf 2e 73 fa 3f
       0.3113169 -1.144026 -1.2869953 1.95664
000100 27 76 6a be 9b 3c 0a c0 9c 40 57 3f 5d ce 4b 40
       -0.22896634 -2.159949 0.8408296 3.1844704
000110 48 92 08 40 cb c8 16 c0 79 52 d8 bf 9b dc 08 40
       2.1339283 -2.3560054 -1.6900169 2.1384647

conv1.bias f4 [8]
000000 43 ff 21 c0 1e 64 45 bc b7 15 e8 bf 39 73 2e bf
       -2.531205 -0.012047796 -1.8131627 -0.68144566
000010 4f 7d 72 bc 35 c4 fc 3c 82 84 cf bd f3 91 40 c0
       -0.014800384 0.030855278 -0.10132696 -3.008908

conv1.weight_fake_quant.scale f4 [8]
000000 f8 80 a4 3c de 09 7c 3c 61 61 75 3c bb e8 7f 3c
       0.020081028 0.015383212 0.01497683 0.015619452
000010 c5 10 c7 3c 30 2e c3 3c 52 10 2a 3c c7 9a cc 3c
       0.024299989 0.023825735 0.010379868 0.024976147

conv1.weight_fake_quant.observer.min_vals f4 [8]
000000 c4 24 96 bf 16 74 9e bf 5c 71 a3 bf 28 7d d7 bf
       -1.172997 -1.2379177 -1.276897 -1.683507
000010 b4 49 46 c0 02 6b 42 c0 1e bc a4 bf 9a c8 16 c0
       -3.0982485 -3.0377812 -1.2869909 -2.3559937

conv1.weight_fake_quant.observer.max_vals f4 [8]
000000 77 dc 23 40 d4 0d fb 3f 00 6c f4 3f d2 e8 fe 3f
       2.560331 1.9613595 1.9095459 1.9914801
000010 30 c1 f9 3f d6 a6 22 40 42 66 a9 3f 2c ce 4b 40
       1.9512081 2.5414329 1.3234332 3.1844587

conv2.weight f4 [16, 8, 2, 2]
000000 60 c9 d9 3e 7c 46 8d 3d 5d d1 70 be ed d3 be bd
       0.4253645 0.068982095 -0.23517366 -0.093177654
000010 bc bf 5c 3e 58 e3 04 bf fa 6e 31 3f a5 d0 cb bf
       0.21557516 -0.519094 0.6930996 -1.5923048
000020 d3 9f 6b 3e a2 5d 73 bf d8 48 9e 3f 1e 4f b2 bf
       0.23010187 -0.9506475 1.236598 -1.3930395
000030 ef b2 83 3f ad f6 53 bf b1 a4 6a 3f 31 80 09 bf
       1.0288981 -0.8279827 0.9165755 -0.5371123
000040 5f 96 69 3a 16 0d d9 bf 1e 66 17 be b4 5e bf bf
       0.00089106517 -1.6957119 -0.14785048 -1.4950776
000050 56 91 13 3e ef 3c 8b bf ee b4 58 be 1e 20 c5 bf
       0.1441091 -1.087797 -0.21162769 -1.5400426
000060 23 41 29 be 09 c8 8f 3e 5b a9 29 3e c3 e8 f1 3e
       -0.16528754 0.28082302 0.1656851 0.47247896
000070 72 19 ce 3e e7 1a c3 bf 5d ef c5 be 81 30 b2 bf
       0.40253788 -1.5242585 -0.38659182 -1.3921052
000080 0c d1 f7 be 87 a8 b0 3e 94 45 cc 3c 9a 21 0d bf
       -0.48401678 0.34503576 0.024935521 -0.55129397
000090 8e be 9c 3f 7c fa 8e be 8c 8e 34 bd 92 23 43 3e
       1.2245653 -0.2792548 -0.044081256 0.19056538
0000a0 81 47 87 3f 0f 1f 07 3f c8 08 46 be 15 60 c9 be
       1.0568696 0.52781767 -0.19339287 -0.39331117
0000b0 28 30 83 3f eb 21 a9 be d9 f8 4b bf dd b4 1e bd
       1.0249071 -0.3303369 -0.79676586 -0.038746703
0000c0 a7 99 9f be bc 43 cf bd 19 42 71 3e ef 59 9b 3d
       -0.31171915 -0.10120341 0.2356037 0.07585513
0000d0 ec 82 ce be a6 e6 c1 3c cc dc 08 3e 38 ce 28 3e
       -0.4033426 0.023669552 0.13365477 0.16484916
0000e0 51 ac f1 3e 29 d5 97 3e 0c 27 ef 3d 17 f7 da be
       0.4720178 0.29654816 0.116773695 -0.4276664
0000f0 e0 0d 6d bf f9 cf 7d 3e 5e ec bb be 9b 3a 61 be
       -0.92599297 0.24786367 -0.3670377 -0.21995012
000100 30 4e 9b 3f c2 68 91 bf 09 0b b2 3e da a7 02 c0
       1.2133236 -1.1360095 0.34774044 -2.0414948
000110 12 39 e9 3e 72 07 45 bf 65 cf f7 bd e1 65 4d be
       0.45551354 -0.76964486 -0.12100104 -0.20058395
000120 62 fd a7 3e 60 a9 d9 bf 52 c1 95 3e 6f 06 b9 3d
       0.32810503 -1.7004814 0.29249054 0.0903443
000130 e5 d3 6c be 70 a2 02 be 3f d2 dc be d6 9a 5b 3f
       -0.23127706 -0.12757277 -0.43129155 0.85783136
000140 07 f5 9e bf 57 4c 04 bf db 68 1d be ab b8 8e bf
       -1.2418526 -0.51678985 -0.1537203 -1.1150106
000150 e1 4a c4 bf c2 4b f5 be 61 f9 47 be ed 15 7d bf
       -1.5335351 -0.4790936 -0.19528724 -0.9886158
000160 f6 87 1d 3f ad 51 ef bf 52 16 b8 3f 48 f8 fa bf
       0.61535585 -1.86968 1.4381812 -1.960702
000170 bc 97 02 be 87 8d 2b bf e7 7c c8 be f1 d8 40 bf
       -0.12753195 -0.6701283 -0.39157793 -0.75331026
000180 9c ae d5 3e be ff 03 bd 8f 65 1e be 22 e8 ba bf
       0.4173478 -0.032226317 -0.15468429 -1.4602091
000190 62 6c 02 3e 6b 36 da 3f 9c 6c 9c bf 27 4d 28 c0
       0.12736657 1.7047857 -1.2220645 -2.629709
0001a0 98 30 ab bc 92 99 37 3f 0d a8 93 bf c5 c4 99 be
       -0.020897195 0.71718705 -1.153566 -0.30032936
0001b0 06 bc 96 3d a7 f2 c3 3f 16 92 93 bf 4f c6 c2 bf
       0.073600814 1.5308427 -1.1528957 -1.5216769
0001c0 cf 40 30 bd ce 0e ed be 99 13 88 3f 86 c2 64 3d
       -0.043030556 -0.46300358 1.0630981 0.055849575
0001d0 a0 42 da 3d 04 3a ab bd 1f 57 ab 3f 26 d6 a1 bc
       0.10657239 -0.08360675 1.3385962 -0.019755434
0001e0 07 50 c4 3e ed 50 88 be 4a 26 c9 be be 66 fe 3e
       0.38342306 -0.2662424 -0.39287025 0.4968776
0001f0 f5 6f 1e be 25 df 9b 3b ae fe 55 3e 13 3a 2d bf
       -0.15472396 0.0047568255 0.20897934 -0.6766674
000200 10 23 0d c0 53 f9 16 3e 1b f4 ce bf 5b f4 84 3e
       -2.205265 0.14743547 -1.6168245 0.25967678
000210 55 ae ca bf c8 ab a8 3f 99 56 e1 bf 2d 5e 13 3b
       -1.5834452 1.3177423 -1.7604553 0.0022486553
000220 a3 0a 10 c0 19 9e 84 3f 4f 4a 95 bf 47 00 b6 be
       -2.2506492 1.0360748 -1.1663302 -0.35547087
000230 68 bb 91 3c 8d 72 6a 3f 2e 85 28 bf 82 bc 65 bd
       0.017789558 0.9158104 -0.65828216 -0.05608798
000240 a7 0b 98 bf 9e c1 65 be 27 4a 0b be cb 42 94 3f
       -1.1878556 -0.2243714 -0.13602506 1.1582884
000250 72 4a ae bd 8f 16 0d bf 21 ca 0c 3d 18 39 45 3f
       -0.08510293 -0.55112547 0.034372453 0.77040243
000260 96 09 12 bf 4f 17 62 3e 9c 1b 80 bf de a1 12 bf
       -0.57045877 0.22079204 -1.0008426 -0.5727824
000270 e7 ad 9e bf 9e 96 aa be 0e 03 6c bf 4a 56 54 3f
       -1.2396821 -0.33318037 -0.9219216 0.82944167
000280 ca 29 2e bf ca 37 6d bf f9 3d e6 be a7 e1 64 3f
       -0.68032515 -0.9266325 -0.44969156 0.8940682
000290 f9 a8 c9 be b7 32 9c bf 8d 01 06 3f a9 90 53 3e
       -0.39386728 -1.2202977 0.52346116 0.20660652
0002a0 8a 0c df bf e5 93 de bf 83 60 4e 3f fe b0 e2 be
       -1.7425702 -1.7388884 0.80616015 -0.4427566
0002b0 49 18 a4 bf bc 6f f1 bf e5 97 87 3f 3c 3e f5 3e
       -1.2819911 -1.8862224 1.059323 0.47899044
0002c0 b7 1e 90 bf 65 93 f0 3d 84 8c e1 3e a7 7f 97 3e
       -1.1259373 0.11746863 0.44052517 0.29589579
0002d0 13 60 09 bf 13 5a e0 3e e7 57 91 3e ad 00 76 3e
       -0.5366222 0.4381872 0.28387377 0.24023695
0002e0 cb a8 08 c0 2d db d2 bf 1d c2 ae 3f 1c 22 a8 be
       -2.1353023 -1.6473137 1.3652989 -0.32838523
0002f0 2a 6e 45 bf c9 79 a4 be 18 a0 77 be f5 b1 af 3f
       -0.7712122 -0.32124165 -0.24182165 1.3726183
000300 71 8b 80 3f 43 92 e8 be ec e7 8c 3f 0d c1 90 3f
       1.0042554 -0.4542409 1.1008277 1.1308914
000310 51 33 24 be 80 07 c6 3e 28 85 88 3e 2d d0 24 be
       -0.160352 0.38677597 0.2666409 -0.16095038
000320 74 c6 41 3f 5f a6 f7 3e fc fd 01 3d 01 19 26 3d
       0.7569344 0.4836912 0.03173636 0.04055119
000330 e1 8f 54 3e bd b5 44 3f 3f ac 87 be 6c a6 83 be
       0.2075801 0.7683981 -0.264986 -0.25712907
000340 cf ce 38 bf e2 c1 9a bd ef 90 53 3e ca 57 18 be
       -0.72190565 -0.075565115 0.20660757 -0.14877239
000350 b0 48 0d bf e2 5a 6d be 5a 45 e8 3c 88 f1 31 3e
       -0.5518904 -0.231792 0.028353382 0.17377293
000360 e0 2d 00 3f c7 00 ca 3e 72 ec 72 be 99 11 02 bd
       0.5007 0.39453718 -0.23723009 -0.031755064
000370 f3 30 e5 be 6f 1e 7d be 44 b9 d1 3e 4f 2a 00 40
       -0.44763908 -0.2471864 0.4096166 2.0025823
000380 4e 8c 07 c0 79 e1 b5 3e ec 45 64 bf 1d f9 c3 bf
       -2.1179385 0.35523584 -0.8916919 -1.5310398
000390 2c 6c c4 bf 68 ec fc 3e 2d 6e a0 bf d2 48 8c be
       -1.5345511 0.49399114 -1.2533623 -0.27399307
0003a0 a7 b6 66 bf 1b 28 1a 3f ff 6a e6 bf 09 ef 35 bf
       -0.90122455 0.60217446 -1.8001403 -0.71067864
0003b0 76 56 86 3f 4e 3d fe 3e 4a 6b cf bf 81 e7 0f bf
       1.0495136 0.49656147 -1.6204617 -0.5621262
0003c0 f2 d0 90 bf b5 7e c8 3f 1c f6 b7 bf e2 43 93 3f
       -1.1313765 1.5663668 -1.4371982 1.1505091
0003d0 0e eb 9f bf 00 f4 50 3f a6 c7 88 bf 4a 17 cb 3f
       -1.2493608 0.81622314 -1.0685928 1.5866482
0003e0 b5 41 ca bf eb 23 59 3e 8d 88 d0 bf 19 2c 12 be
       -1.5801302 0.21205108 -1.6291672 -0.14274634
0003f0 7e cd c0 bf c1 a9 bd 3d a7 1d 56 bf 70 2d 6a bf
       -1.5062711 0.092608936 -0.83638996 -0.9147558

conv2.bias f4 [16]
000000 1f 21 b3 bd ca 22 a8 bd 47 2c c8 3e 21 36 ab 3e
       -0.08746552 -0.082097605 0.3909628 0.33439735
000010 08 a4 7f 3e 6c c2 05 3e e4 77 9c c0 72 3c 8f 3f
       0.24964917 0.13062447 -4.889635 1.1190321
000020 84 9f 7e 40 60 63 91 3f e4 98 39 c0 0a b2 ca bf
       3.978486 1.1358452 -2.8999567 -1.5835583
000030 a5 6c fb 3e d8 c0 0a c0 be 16 60 bf bb 89 8b be
       0.49106327 -2.1680202 -0.875347 -0.27253518

conv2.weight_fake_quant.scale f4 [16]
000000 db e6 59 3c ea 5b 1d 3c d3 2a 83 3c 0f f6 a8 3c
       0.013299669 0.009604434 0.016011631 0.020625142
000010 0d 9b 90 3c cc 31 89 3c fa aa 80 3c 8b 14 88 3c
       0.017652059 0.016747378 0.015706528 0.016611358
000020 e7 08 71 3c ca 53 b2 3c 66 af 5d 3c ac 22 80 3c
       0.014711595 0.02176847 0.013530588 0.015641533
000030 19 9f 55 3c 8e d3 5c 3c 22 96 63 3c 4e 1a 5d 3c
       0.01303842 0.013478173 0.013890775 0.013495041

conv2.weight_fake_quant.observer.min_vals f4 [16]
000000 f4 0c d9 bf ae 0d 6d bf a8 a7 02 c0 19 4d 28 c0
       -1.6957078 -0.92599 -2.041483 -2.6297057
000010 72 0a 10 c0 9a a8 08 c0 9e ce 38 bf 76 8c 07 c0
       -2.2506375 -2.1352906 -0.7219027 -2.117948
000020 de 17 f0 bf 76 a1 31 c0 1c a6 b4 bf 92 78 07 bf
       -1.8757284 -2.7754798 -1.4113193 -0.5291835
000030 7a c9 d4 bf ba f6 db bf 8c b2 e2 bf 34 3d dc bf
       -1.6623986 -1.718467 -1.7710738 -1.7206178

conv2.weight_fake_quant.observer.max_vals f4 [16]
000000 0a 49 9e 3f 8e be 9c 3f 20 16 b8 3f 3a 36 da 3f
       1.236604 1.2245653 1.4381752 1.7047799
000010 fa ab a8 3f 23 b2 af 3f 4f 2a 00 40 18 17 cb 3f
       1.3177483 1.3726238 2.0025823 1.5866423
000020 2a a8 52 3f d8 2a ad 3f b7 d1 dc 3f 12 45 ff 3f
       0.8228785 1.35287 1.72515 1.9942954
000030 2e 34 a7 3f f4 c9 ae 3f 76 6b d2 3f 56 25 8c 3f
       1.3062799 1.3655381 1.6439044 1.0948894

conv3.weight f4 [32, 16, 2, 2]
000000 f4 eb 0f bf 6e dc 2e 3e fc ba 92 bf cc 54 ff be
       -0.5621941 0.17076275 -1.1463313 -0.49869382
000010 17 6a 15 bf 7f 1f 1c 3d 5a 42 15 be 61 15 5e be
       -0.58365005 0.038115975 -0.14576092 -0.21687843
000020 54 e1 14 3d 91 f6 b0 bc 15 4c 4e be 55 b5 2b bf
       0.036347702 -0.021601947 -0.2014621 -0.67073566
000030 81 c4 14 bf 2b d7 ee 3e ca a6 6c bf c9 ac 30 3f
       -0.5811234 0.46648535 -0.92442 0.6901365
000040 b2 7f 2d bf 3f af f6 bc 8d bd 2c 3f 61 a3 05 c0
       -0.6777297 -0.03011286 0.6747673 -2.0880969
000050 1a 2c 24 bf fd a5 1f bf 40 fe 9b 3e 1a ad 9e 3e
       -0.64129794 -0.62362653 0.30467415 0.3099144
000060 49 c0 00 bf f0 7f a8 bf 99 d9 52 3f d6 45 14 bf
       -0.50293404 -1.3164043 0.8236328 -0.5791906
000070 d4 ed 7f 3e c0 77 64 3e d7 d4 2e bf 5d 1e 05 c0
       0.24993068 0.22311306 -0.6829352 -2.0799782
000080 86 70 81 3e 7c 54 a9 3c 9c 7b a0 be 06 06 05 bf
       0.2528116 0.020670168 -0.31344306 -0.51962316
000090 5a 42 48 bf 83 04 21 3f 54 02 bf bf 23 90 46 be
       -0.78226244 0.6289751 -1.4922585 -0.19390921
0000a0 fe 8c ca be f6 fc 02 be e2 76 f9 3c e2 b4 80 bf
       -0.39560694 -0.1279181 0.030452196 -1.0055201
0000b0 d7 74 f8 be 5f 05 da bf 11 71 0b bf 29 f5 7b 3f
       -0.48526642 -1.7032889 -0.544694 0.9842096
0000c0 e4 ba 29 bf 08 df ab be 58 20 ce 3e f4 b3 28 bf
       -0.663008 -0.33568597 0.4025905 -0.65899587
0000d0 0f d8 22 be 7c 65 2e be c3 58 5c be c8 38 cd 3e
       -0.15902732 -0.170309 -0.21518235 0.40082383
0000e0 55 e1 66 bf 6e 27 b1 bf 99 f2 ca 3e c2 7a 13 3e
       -0.9018758 -1.3840158 0.39638212 0.14402297
0000f0 03 d0 e9 bd ea 37 9b bd 9c a3 5e bf 7e d7 e2 3e
       -0.11416628 -0.07579024 -0.869684 0.44305032
000100 b1 80 52 be 00 ca 58 3e e1 28 69 be 29 07 40 3f
       -0.20556904 0.21170807 -0.227695 0.75010926
000110 28 b6 d0 be 9e 88 f7 3b 94 84 3b bf 7e 10 03 3f
       -0.40763974 0.007554128 -0.73249173 0.5119704
000120 bb 3b 93 bf 86 61 75 3f 28 6d 09 bf 88 6f 3f be
       -1.1502603 0.95851934 -0.53682184 -0.1869489
000130 39 ae e0 bc ce c5 b7 bd c5 18 f1 bb 15 f2 a9 3d
       -0.027426826 -0.08973275 -0.007357689 0.082981266
000140 fa 58 bd 3e d4 16 35 3f d3 27 89 bf 80 cd 52 bf
       0.36981946 0.7073796 -1.0715278 -0.8234482
000150 60 34 27 bf d4 7e 6e bf 44 46 d6 be 0c 98 d2 be
       -0.6531429 -0.93162274 -0.41850483 -0.41131628
000160 03 5d ea be 3d a5 cc be 82 5e 81 bf d6 99 a2 bf
       -0.45774087 -0.39969817 -1.0106966 -1.2703197
000170 39 b5 69 3f d1 eb a9 be df 1f 42 bd b3 3b 16 bf
       0.9129215 -0.33187726 -0.047393676 -0.58684844
000180 6d fc 84 3c aa 78 31 bd 17 07 26 be 06 1b 83 3e
       0.016233647 -0.043327965 -0.16213642 0.25606555
000190 e0 39 e6 3d d2 99 3d bf 31 39 fc 3e 98 ac d1 3e
       0.112415075 -0.74062836 0.49262384 0.4095199
0001a0 ff 66 29 be 6a d3 e4 be fc 05 2c bf 85 e1 22 3d
       -0.16543196 -0.44692546 -0.6719663 0.039765853
0001b0 97 f5 5b be 53 af bc bd 15 06 53 bf bd a8 89 bf
       -0.21480404 -0.09213128 -0.82431155 -1.075462
0001c0 b5 56 8a 3e 57 bf 00 3f c3 4d 56 bf 87 2f 40 bf
       0.27019277 0.5029196 -0.83712405 -0.7507252
0001d0 a8 93 e9 be 16 61 cf bf 28 aa 0f 3e e2 58 ef be
       -0.45620465 -1.6201503 0.14029753 -0.467475
0001e0 89 4f 1f bf 00 49 de bf fc a8 0f bf 95 09 35 bf
       -0.62230736 -1.7366028 -0.56117225 -0.70717746
0001f0 2b 4f a1 3d 8a b5 d7 be 4c 39 32 bf 95 af 8f 3f
       0.07876428 -0.4213069 -0.6961868 1.1225458
000200 2c 2d 3e bf 58 91 cc be 35 1b 58 3e 59 bf b0 3e
       -0.74287677 -0.39954638 0.21104129 0.34520987
000210 38 1c 23 3e d8 d5 10 bf ef 46 13 3f bf 01 78 be
       0.15928733 -0.565763 0.5753011 -0.24219416
000220 19 20 97 bf ef 81 19 be f0 d8 f7 3e a2 4f 13 be
       -1.180667 -0.14990972 0.48407698 -0.14385846
000230 dd be b2 3d 3f b5 67 3e 2b a4 92 3d 86 54 0a bf
       0.087278105 0.22627734 0.07160219 -0.5403522
000240 bc d8 88 bf 79 ea c4 bf 17 6d 0b 3f 4a cc f8 be
       -1.0691142 -1.5384055 0.5446333 -0.4859336
000250 69 dc 77 3e 49 26 ad bc 54 12 45 3e bd 5a 88 3d
       0.24205174 -0.02113642 0.19245273 0.06657932
000260 39 2d 46 3e 05 66 c3 3f 59 c1 a1 bf d7 86 a2 bf
       0.19353189 1.5265509 -1.263713 -1.26974
000270 1c 9c d1 bf 57 8f ce bf 2d 1a 91 3e 4c 2e ce 3e
       -1.6375766 -1.6137494 0.28340283 0.40269697
000280 bc 78 f4 be 10 6d 23 3f 6d 33 98 bf 9b f8 9d bf
       -0.47748363 0.6383829 -1.1890694 -1.2341493
000290 3b 6d a6 bf 05 b5 2f bf 4b 06 0a 3e 11 55 9a 3c
       -1.3002084 -0.6863559 0.13478963 0.018839391
0002a0 54 fd e3 3d 59 a3 01 bf a8 06 c2 be 18 10 10 3f
       0.11132303 -0.50639874 -0.37895703 0.5627456
0002b0 4e 0c 42 bd 66 4e 8b 3f f1 70 0e bf 93 59 77 bf
       -0.047375016 1.08833 -0.55641085 -0.96621054
0002c0 c1 92 ef 3e 8d 32 2b bf be f4 0a be f1 6e 3a 3f
       0.46791652 -0.6687401 -0.13569924 0.72825533
0002d0 97 91 8c 3e ac 06 02 3f 19 7f b2 bf 39 81 07 be
       0.27454826 0.5079143 -1.3945037 -0.13232888
0002e0 c3 5d 94 3e db 21 0b bd af ba 7e bf 64 d6 e2 be
       0.28977785 -0.033967834 -0.99503607 -0.44304192
0002f0 72 3b 9c bd c5 88 47 bf 7b e4 02 3f b0 2c ae 3d
       -0.07628526 -0.7794307 0.51129884 0.08504617
000300 ae 6d bd be 2a 48 1a bf d7 24 ca 3e fb 3f 89 3f
       -0.3699774 -0.60266364 0.39481232 1.072265
000310 33 a6 e0 be d1 90 c4 3f 43 a3 3e bf ea ca ca be
       -0.438768 1.5356694 -0.7446787 -0.39607936
000320 fc c0 43 bf e0 ed 37 bf ec 1e 3d 3f 6d f1 2b 3f
       -0.76466346 -0.71847343 0.7387531 0.6716526
000330 c8 01 92 be ac c5 c9 3e 46 62 be 3e d5 7e 89 be
       -0.28516984 0.39408624 0.37184352 -0.26854578
000340 29 f4 53 bf 8c b9 a2 bf d8 ce 89 3d 0d 0b 32 bf
       -0.82794434 -1.2712874 0.067289054 -0.6954811
000350 f1 af ab bf 4d ce 16 bf ab 94 93 bf 4c e2 cd be
       -1.3413068 -0.5890854 -1.1529745 -0.40211713
000360 55 d2 91 3e 5c c7 d5 be 19 84 f2 3d a9 65 94 bf
       0.28480783 -0.41753662 0.11841602 -1.1593524
000370 c6 ef db bf 1e 26 2a bf cd 99 13 3f 57 58 d6 be
       -1.7182548 -0.6646441 0.57656556 -0.41864273
000380 2e 89 07 c0 10 4b 5e 3e 61 6c e3 bf 15 28 96 3e
       -2.1177478 0.21708322 -1.776745 0.29327455
000390 37 1b a0 bf f1 d5 10 bf f5 58 16 3f e1 bc ee bc
       -1.2508305 -0.5657645 0.5872949 -0.029142799
0003a0 c9 3d e5 3e ae db c2 be 27 c2 ad be 3f af 45 3e
       0.447737 -0.38058227 -0.3393719 0.19305132
0003b0 b3 db b9 be 6a 73 54 3e d6 48 69 3e c9 53 29 bf
       -0.3630043 0.20747152 0.22781691 -0.6614347
0003c0 48 dd 8b bd a1 22 1b bf 0d 81 54 bf 43 df cc be
       -0.068293154 -0.60599715 -0.83009416 -0.40014085
0003d0 ac b7 eb bd f1 c4 07 bf 49 0f 9f 3e 0a ad a1 bf
       -0.11509642 -0.53034884 0.3106635 -1.2630932
0003e0 70 af 62 bd 1e 01 86 be 5c 1b 32 bf d3 e1 49 3d
       -0.05534309 -0.26172727 -0.69573 0.04928763
0003f0 1c 70 8b bf c7 4d 78 3f 00 64 61 be 54 20 dc 3b
       -1.0893588 0.9699368 -0.22010803 0.006717721

conv3.bias f4 [32]
000000 f8 f9 a9 bf f5 0e a4 bf 7c 85 e5 bf ed 96 f1 bf
       -1.327941 -1.2817065 -1.7931361 -1.8874184
000010 5b bd 27 bf 02 96 00 c0 fa ac 97 bf 36 c0 ed bf
       -0.6552331 -2.0091558 -1.1849663 -1.8574283
000020 01 75 1a c0 8f 9c 60 bf 40 c9 c3 bf fb 41 b2 bf
       -2.4133914 -0.8773889 -1.5295792 -1.3926386
000030 d1 86 c5 bf d1 e8 69 bf 3e 92 d0 bf 4f b8 09 c0
       -1.5431768 -0.91370875 -1.629463 -2.1518743
000040 1d 96 dc bf 76 b4 e1 bf d9 7a 13 c0 27 bb dd bf
       -1.7233311 -1.7633197 -2.304373 -1.7322739
000050 f1 c7 6b bf e5 83 b3 bf 32 7a d4 bf 6c 0f 74 bf
       -0.9210196 -1.4024626 -1.6599791 -0.9533603
000060 bd a5 8d bf bb da cf bf d5 bd 8b bf 2e ad a8 bf
       -1.1066204 -1.6238626 -1.0917307 -1.317785
000070 80 1b ad bf 7d 18 d1 bf e2 98 de bf 53 d7 d8 bf
       -1.3524017 -1.6335598 -1.7390406 -1.6940712

conv3.weight_fake_quant.scale f4 [32]
000000 90 29 86 3c 18 28 5f 3c bd 6e 52 3c 0d 11 88 3c
       0.01637724 0.013620399 0.012843785 0.016609693
000010 b4 2c 25 3c 9c 8d 7d 3c ed 87 81 3c a6 a9 7b 3c
       0.010081459 0.015475657 0.015811885 0.015360272
000020 f4 71 47 3c f9 08 11 3c ed 48 48 3c 65 05 9b 3c
       0.012173165 0.008852237 0.012224418 0.01892347
000030 69 e9 5f 3c 86 d9 84 3c 09 c7 b8 3c a2 99 8f 3c
       0.013666489 0.016217005 0.022555845 0.017529313
000040 c7 e1 95 3c 0d ad 49 3c 4f 99 2b 3c 81 98 80 3c
       0.018296136 0.012309325 0.010473563 0.01569772
000050 fb 8f 7c 3c d9 37 74 3c 05 a3 67 3c 66 08 69 3c
       0.015415187 0.014905893 0.014137988 0.014223194
000060 ce c3 99 3c 3f 83 6f 3c a8 f1 5c 3c 9d 3c 9c 3c
       0.018770125 0.014618694 0.01348535 0.019071871
000070 41 d5 8d 3c 58 a2 62 3c 68 e4 bf 3c 49 54 57 3c
       0.017313601 0.013832651 0.023424342 0.013142654

conv3.weight_fake_quant.observer.min_vals f4 [32]
000000 66 a3 05 c0 f0 48 de bf 4e 9c d1 bf fc 88 07 c0
       -2.088098 -1.7366009 -1.6375825 -2.1177359
000010 87 87 a4 bf 0e 90 fc bf 65 06 01 c0 fc ad fa bf
       -1.285386 -1.9731462 -2.0160153 -1.9584346
000020 82 aa c6 bf f0 77 90 bf a4 80 c7 bf 60 6a 1a c0
       -1.5520785 -1.1286602 -1.5586133 -2.4127426
000030 80 09 df bf ac 54 04 c0 42 0e 38 c0 08 0a 0f c0
       -1.7424774 -2.067668 -2.8758702 -2.2349873
000040 e5 4b 15 c0 60 e3 c8 bf b6 ed aa bf e8 17 00 c0
       -2.3327572 -1.5694389 -1.3353794 -2.0014591
000050 6b 93 fb bf a1 43 f3 bf 62 bb e6 bf 5e 1f e8 bf
       -1.9654363 -1.9005014 -1.8025935 -1.8134573
000060 0a 2a 19 c0 bc 93 ee bf b6 14 dc bf 60 a0 1b c0
       -2.3931909 -1.8638835 -1.719382 -2.4316635
000070 6c 47 0d c0 b6 bf e1 bf 84 24 3f c0 f5 7c d6 bf
       -2.2074842 -1.763663 -2.9866037 -1.6756884

conv3.weight_fake_quant.observer.max_vals f4 [32]
000000 5a f5 7b 3f c6 af 8f 3f d4 65 c3 3f a0 90 c4 3f
       0.9842125 1.1225517 1.526545 1.5356636
000010 d2 b2 7d 3f 72 88 70 3f 5c 38 d8 3f 28 c4 5c 3f
       0.99100983 0.939582 1.68922 0.8623681
000020 5e a0 74 3f 70 c4 67 3f be fb 64 3f f4 a7 87 3f
       0.955572 0.90534115 0.8944663 1.059813
000030 8a 23 aa 3f f6 92 31 3f 1a ca a0 3f 30 97 8e 3f
       1.3292096 0.6936487 1.2561677 1.1139889
000040 68 71 89 3f e4 d9 5b 3f 1a 34 a6 3f d6 bf 91 3f
       1.0737734 0.8587935 1.298465 1.1386669
000050 f2 07 5f 3f d6 e3 91 3f b2 a0 61 3f ee a7 93 3f
       0.871215 1.1397655 0.88135827 1.1535623
000060 62 1d 94 3f 32 70 9c 3f 24 93 6c 3f dc ca 6f 3f
       1.1571467 1.2221739 0.9241202 0.93668914
000070 c6 ca 49 3f 4c 56 82 3f 3a 92 a9 3f 7e 50 a1 3f
       0.7882503 1.0182586 1.324775 1.2602689

fc.weight f4 [10, 32]
000000 38 00 eb 3e 7d 18 97 bf 8d f2 43 3f e7 64 d2 bd
       0.45898604 -1.1804348 0.7654198 -0.10273152
000010 25 17 13 bf 62 c9 85 bf 35 11 f3 3f 47 40 71 3d
       -0.5745719 -1.0452082 1.8989626 0.05889919
000020 91 4f 0a 3f 5b 80 30 be 29 57 33 3f 93 12 94 3f
       0.5402766 -0.17236464 0.7005487 1.1568168
000030 52 e6 a2 3f 0a 22 7d 3f 6e 16 b6 3e dd 85 bb 3f
       1.2726538 0.98880064 0.35563987 1.4650227
000040 b3 fe 37 bf 6f 32 37 3f c7 ef d1 bf 59 a7 da bd
       -0.71873015 0.7156133 -1.6401299 -0.1067645
000050 2b c9 1a 3f 5b 48 b0 3f 63 f2 71 3f e0 98 78 bf
       0.6046321 1.3772081 0.9451048 -0.9710827
000060 21 d4 26 3f 5a 21 03 3f cd 5f 84 3f f3 b1 b8 3f
       0.65167433 0.51222765 1.0341736 1.4429306
000070 a8 4e 93 bf 50 c2 ac bf cd 45 e7 be 29 a6 1c be
       -1.1508379 -1.34968 -0.4517044 -0.1529776
000080 68 07 e4 bf 0a 87 3a 3f 6c 7d b2 bf 4d b6 0b bf
       -1.781476 0.72862303 -1.3944526 -0.54575044
000090 b9 42 0a bf 7c db 3f bf 10 70 0c 40 fb e6 fe bf
       -0.5400806 -0.7494428 2.1943398 -1.991424
0000a0 ca 7f 2c be be fd aa 3f 9f cf a5 3e 39 41 99 3f
       -0.16845623 1.3358686 0.32384965 1.1973029
0000b0 dc e7 b2 3f 38 f0 06 c0 e7 55 07 c0 82 e5 90 bd
       1.3977008 -2.1084118 -2.114618 -0.07075025
0000c0 31 4e ff bf 8d 7e 58 bf e9 9d e9 3e 6d a0 f0 bf
       -1.9945737 -0.845681 0.45628288 -1.8798958
0000d0 58 86 3e bf fc c7 d0 bf b6 fe 1c bf 9c 56 16 bf
       -0.7442374 -1.631103 -0.6132616 -0.58725905
0000e0 48 0e 42 be b5 b4 0c 3f e6 d9 1e c0 b2 8f cb bf
       -0.1895076 0.5496324 -2.4820495 -1.5903227
0000f0 aa ff ed be 35 ef e1 3e f4 b8 9c 3f c8 28 88 3f
       -0.4648412 0.44127813 1.2243943 1.0637445
000100 53 97 65 bf 49 d7 db bf 43 e7 60 3f 47 29 a3 bf
       -0.8968403 -1.7175075 0.8785288 -1.2746972
000110 dd 1c e8 be c7 4d 80 3f ac bd d7 bf f3 86 46 bf
       -0.4533452 1.0023736 -1.6854758 -0.77549666
000120 d7 8f 5d 3f 10 bc b9 bf 19 0e 61 3f 8d 66 a1 be
       0.8654761 -1.4510517 0.87912136 -0.31523553
000130 d3 17 80 bd 57 ed 8d 3f 8f 06 d3 be d9 51 d3 3e
       -0.06254544 1.1088055 -0.4121594 0.41273382
000140 7e a7 7e bd db 8b a6 3f fa 0d 61 3f 77 34 a5 bf
       -0.06217145 1.301143 0.8791195 -1.2906636
000150 23 26 3e 3f 3c e3 ab be 3b 62 b2 be 7a 42 89 bd
       0.7427694 -0.33571804 -0.3484057 -0.067021325
000160 9d fa b7 3f 5e e9 62 3f 40 44 48 bf 19 76 57 3f
       1.4373356 0.8863734 -0.7822914 0.8416458
000170 f7 3d 21 3f 68 d7 ad 3f 0e a6 92 3f d8 79 06 c0
       0.62985176 1.3581362 1.1456926 -2.1011868
000180 bb 14 f9 be dd 8a a3 be ca 58 df be 3b d3 d7 3e
       -0.4864863 -0.31941882 -0.43622428 0.42153344
000190 95 ca 31 3f 2e e6 6d 3f d5 ca 14 c0 14 94 a0 3f
       0.6944974 0.9292935 -2.32488 1.254519
0001a0 31 4f 5a be 45 f8 c9 bf 11 12 42 3f 77 5d 9f bf
       -0.21319272 -1.5778891 0.7580882 -1.2450398
0001b0 df df 8c bf d2 84 8c 3f 7e 8e 9d bf 03 03 ce bf
       -1.100582 1.0978034 -1.230911 -1.6094669
0001c0 35 a5 62 3f 55 e9 a5 bd 72 c6 5c 3f d6 0b 9a 3f
       0.88533336 -0.08101145 0.86240304 1.2034862
0001d0 91 2b cc bf a2 65 b3 3f ab c3 9c 3f 22 ef 8f bf
       -1.5950795 1.4015391 1.2247213 -1.1244853
0001e0 71 42 9d 3f b9 cf 15 bf 29 9d 3c bf 2a 3b ec 3e
       1.2285901 -0.58520085 -0.7367731 0.4613889
0001f0 4b 57 07 bf 0c f4 6b 3f b0 67 a3 3f 88 52 3e 3f
       -0.52867573 0.9216926 1.2766018 0.7434468
000200 67 88 ae bf 93 2a a0 3f c8 9f 43 3f 61 23 1a 3f
       -1.3635377 1.2512993 0.7641568 0.60210234
000210 af 9b 98 3f 28 8e d4 3f e5 97 b0 3e 0a fd 9f bf
       1.1922511 1.6605883 0.34490886 -1.2499096
000220 40 d8 60 3f 25 84 ce 3f 6e c3 8f bf 40 6f 44 bb
       0.8782997 1.6134077 -1.1231515 -0.0029973537
000230 59 a1 5b bf ba ae 9a bf a8 b3 86 3f 1d 23 d2 3f
       -0.8579307 -1.2084572 1.0523577 1.6416966
000240 11 49 92 3f 0d 08 41 bf 39 da e2 3d 8f d6 3d 3e
       1.1428548 -0.7540291 0.11076779 0.18538879
000250 82 68 f1 3e 2f a2 06 c0 2b 29 ea bf 5b b4 61 be
       0.47150046 -2.103649 -1.8293813 -0.22041456
000260 27 bc 7b be eb b5 77 bf 5a ae 43 be e3 71 6c bf
       -0.24583493 -0.9676196 -0.19109479 -0.9236128
000270 a6 8c a2 bf f3 dd 57 be 3e bd c5 be eb 64 c3 3e
       -1.2699172 -0.2108076 -0.38620943 0.38162932
000280 53 4a ce 3f 92 49 78 be 4c 92 1a be 2c 9c 83 3e
       1.6116432 -0.24246815 -0.1509487 0.25705087
000290 bb be 6f be 1a b3 fa be 4e 10 f8 bd fa e8 af 3f
       -0.23412602 -0.4896477 -0.12112485 1.3742974
0002a0 3f b9 93 be 5a df 3c be 48 fc 4b 3f 5b 90 a2 bf
       -0.2885227 -0.18444577 0.79681826 -1.2700304
0002b0 75 ad 2d bf b3 47 8e bf dd fc 6e 3f 7f ce 98 3d
       -0.678428 -1.1115631 0.9335459 0.07461261
0002c0 8f 14 9c bf db 5f c4 bc 4d 24 e3 3e 6f 31 96 3f
       -1.2193774 -0.023971489 0.44363633 1.1733836
0002d0 de a5 9c be 66 be a2 3f cd c1 bc 3f 84 85 22 3e
       -0.30595297 1.2714355 1.4746643 0.15871245
0002e0 92 02 30 c0 f2 cd 3d bf bf bb a4 3f 81 a1 88 bf
       -2.7501569 -0.7414237 1.2869796 -1.0674287
0002f0 9c 5f 9d 3f 63 5c 08 3f 4a 83 c6 bf ab 51 1a 3f
       1.2294803 0.5326597 -1.5508816 0.60280865
000300 07 00 ec be b5 00 ba bf ae 28 67 be 1a 8f c2 bd
       -0.4609377 -1.4531466 -0.22574112 -0.09499951
000310 e4 a6 03 c0 3d be c8 bf 9c a2 f0 3f e6 90 9d 3f
       -2.0570612 -1.5683056 1.8799624 1.2309844
000320 b4 1d 65 3f cd 3f a6 3f fe fb 29 3f 43 c6 47 3f
       0.8949845 1.298822 0.66400135 0.780369
000330 a8 2f a2 3e b9 1a bc bf 28 48 81 3f 90 a0 0f 3e
       0.31676984 -1.4695655 1.0100145 0.14026093
000340 fb 22 67 3e 8f a0 77 3f 8c ab 08 c0 50 57 65 3e
       0.22571938 0.9672937 -2.1354704 0.22396588
000350 f2 08 5c 3f 9a 65 87 3f 4c fa fb 3e d4 2e e5 3f
       0.8595115 1.0577881 0.492144 1.7904916
000360 e9 be 02 c0 3b ca ec 3e 82 6a 7b bf 63 9c b4 bf
       -2.0429022 0.4624804 -0.98209393 -1.4110225
000370 5c 97 9c 3f 1b 36 ce bf a1 6d 0c c0 0c 2f 0e c0
       1.2233691 -1.6110262 -2.1941912 -2.2216215
000380 00 94 51 3f cd e9 b3 3f 5b 12 69 3f d7 bc 53 bf
       0.81866455 1.4055725 0.91043633 -0.8271002
000390 2d e3 71 3f 9a a4 a7 3f 02 3a 40 bf 4d fd a8 bf
       0.9448727 1.3097107 -0.7508851 -1.3202301
0003a0 a5 eb 97 bf cf 00 6a bf dd 20 18 c0 fa cc a1 3e
       -1.1868788 -0.91407484 -2.3770058 0.31601697
0003b0 f2 82 e1 3d ad 4f 8a 3f 8a 60 c9 bf b0 87 05 3e
       0.11011304 1.0805565 -1.5732586 0.13040042
0003c0 3b 20 80 be 1c f7 6b bf e9 a9 6e 3f be b6 8c bf
       -0.2502459 -0.92173934 0.9322801 -1.0993268
0003d0 52 9c b2 bf 09 f8 c8 bf d2 74 f8 bf 7b 64 b9 3f
       -1.3953955 -1.5700694 -1.9410651 1.4483789
0003e0 02 76 e5 3e d0 54 bb be 57 48 65 3f c2 38 9b 3f
       0.44816595 -0.36588144 0.89563507 1.2126696
0003f0 df 4b a3 3f 5d 8a 88 3f 0d 82 7f 3f 5d 96 89 3f
       1.2757529 1.0667225 0.99807817 1.0749012

fc.bias f4 [10]
000000 03 cd bb bf 3e 47 01 40 39 23 a0 be 56 a0 17 bf
       -1.467194 2.0199733 -0.31276873 -0.5922903
000010 0b 08 0e 3f da ec 29 3e 9a a8 1a be e5 43 b4 be
       0.5548102 0.16594258 -0.15103379 -0.3520805
000020 b3 a8 9b be d9 59 7b 3e
       -0.30402145 0.24545993

fc.weight_fake_quant.scale f4 [10]
000000 3a 05 74 3c 2d 79 9f 3c 0b 01 87 3c 1c 60 95 3c
       0.014893824 0.01946696 0.01647999 0.018234305
000010 8a 29 87 3c 13 b3 b0 3c 98 bd 8e 3c c8 b9 98 3c
       0.0164993 0.021569764 0.01742439 0.018643275
000020 2d 41 8f 3c 9b 88 5b 3c
       0.017487133 0.0133992685

fc.weight_fake_quant.observer.min_vals f4 [10]
000000 96 ef d1 bf b4 d9 1e c0 0a 7a 06 c0 bc ca 14 c0
       -1.6401241 -2.4820375 -2.1011987 -2.324874
000010 60 a2 06 c0 60 02 30 c0 da 2e 0e c0 0e 21 18 c0
       -2.1036606 -2.750145 -2.2216096 -2.3770175
000020 4e 4e 83 bf 12 ad da bf
       -1.0258272 -1.7084067

fc.weight_fake_quant.observer.max_vals f4 [10]
000000 35 11 f3 3f 42 70 0c 40 6c fa b7 3f d4 65 b3 3f
       1.8989626 2.1943517 1.4373298 1.401545
000010 f6 8d d4 3f 84 4a ce 3f ce a2 f0 3f ac 64 b9 3f
       1.6605823 1.611649 1.8799684 1.4483848
000020 ec b1 0e 40 46 17 b8 3f
       2.2296095 1.4382102
